name: "Sony"
layer {
  name: "Placeholder: Placeholder.input.uid1"
  type: "Placeholder"
  
  top: "Placeholder.input.uid1:0"
    scale_param {
    "InputShapes": ""
    "OutputShape": "3x320x320"
    "Quantize[mn,mx]": [0, 1.0]
    "QuantizeBits": 8
    
    "RuntimeMemory": "304.00KB"
    "ScheduleId": "131"

  }

}
layer {
  name: "Cast: Cast_to_/model/mul/Mul_1"
  type: "Cast"
  
  top: "Cast_to_/model/mul/Mul_1:0"
    scale_param {
    "InputShapes": "1x2100"
    "OutputShape": "1x2100"
    "Quantize[mn,mx]": [-128.0, 128.0]
    "QuantizeBits": 16
    "ConstInputs": "/model/mul/WeightsPOTQuantizer:0"
    "RuntimeMemory": "4.13KB"
    "ScheduleId": "384"

  }
  blobs {
    shape {
      dim: 1
      dim: 2100
    }
  }
}
layer {
  name: "Cast: Cast_to_/model/sub/Sub_0"
  type: "Cast"
  
  top: "Cast_to_/model/sub/Sub_0:0"
    scale_param {
    "InputShapes": "2x2100"
    "OutputShape": "2x2100"
    "Quantize[mn,mx]": [-64.0, 64.0]
    "QuantizeBits": 16
    "ConstInputs": "/model/sub/WeightsPOTQuantizer:0"
    "RuntimeMemory": "8.25KB"
    "ScheduleId": "378"

  }
  blobs {
    shape {
      dim: 2
      dim: 2100
    }
  }
}
layer {
  name: "Cast: Cast_to_/model/add_6/Add_0"
  type: "Cast"
  
  top: "Cast_to_/model/add_6/Add_0:0"
    scale_param {
    "InputShapes": "2x2100"
    "OutputShape": "2x2100"
    "Quantize[mn,mx]": [-64.0, 64.0]
    "QuantizeBits": 16
    "ConstInputs": "/model/add_6/WeightsPOTQuantizer:0"
    "RuntimeMemory": "8.25KB"
    "ScheduleId": "381"

  }
  blobs {
    shape {
      dim: 2
      dim: 2100
    }
  }
}
layer {
  name: "Pad: /model/model_0_conv/layer/Conv_pad_to1d_0"
  type: "Pad"
  bottom: "Placeholder.input.uid1:0"
  top: "/model/model_0_conv/layer/Conv_pad_to1d_0:0"
    scale_param {
    "InputShapes": "3x320x320"
    "OutputShape": "3x322x320"
    "Quantize[mn,mx]": [0, 1.0]
    "QuantizeBits": 8
    "HasScratch": "true"
    
    "RuntimeMemory": "301.88KB"
    "ScheduleId": "132"

  }

}
layer {
  name: "Transform: transform-80-/model/model_0_conv/layer/Conv_pad_to1d_0"
  type: "Transform"
  bottom: "/model/model_0_conv/layer/Conv_pad_to1d_0:0"
  top: "transform-80-/model/model_0_conv/layer/Conv_pad_to1d_0:0"
    scale_param {
    "InputShapes": "3x322x320"
    "OutputShape": "3x322x320"
    "Quantize[mn,mx]": [0, 1.0]
    "QuantizeBits": 8
    
    "RuntimeMemory": "330.00KB"
    "ScheduleId": "133"

  }

}
layer {
  name: "Pad: /model/model_0_conv/layer/Conv_pad_to1d_1"
  type: "Pad"
  bottom: "transform-80-/model/model_0_conv/layer/Conv_pad_to1d_0:0"
  top: "/model/model_0_conv/layer/Conv_pad_to1d_1:0"
    scale_param {
    "InputShapes": "3x322x320"
    "OutputShape": "3x322x322"
    "Quantize[mn,mx]": [0, 1.0]
    "QuantizeBits": 8
    "HasScratch": "true"
    
    "RuntimeMemory": "332.06KB"
    "ScheduleId": "134"

  }

}
layer {
  name: "StrideSlice: /model/model_0_conv/layer/Conv_pf(1;1)_dim_2"
  type: "StrideSlice"
  bottom: "/model/model_0_conv/layer/Conv_pad_to1d_1:0"
  top: "/model/model_0_conv/layer/Conv_pf(1;1)_dim_2:0"
    scale_param {
    "InputShapes": "3x322x322"
    "OutputShape": "3x322x161"
    "Quantize[mn,mx]": [0, 1.0]
    "QuantizeBits": 8
    
    "RuntimeMemory": "166.03KB"
    "ScheduleId": "147"

  }

}
layer {
  name: "StrideSlice: /model/model_0_conv/layer/Conv_pf(1;0)_dim_2"
  type: "StrideSlice"
  bottom: "/model/model_0_conv/layer/Conv_pad_to1d_1:0"
  top: "/model/model_0_conv/layer/Conv_pf(1;0)_dim_2:0"
    scale_param {
    "InputShapes": "3x322x322"
    "OutputShape": "3x322x161"
    "Quantize[mn,mx]": [0, 1.0]
    "QuantizeBits": 8
    
    "RuntimeMemory": "166.03KB"
    "ScheduleId": "143"

  }

}
layer {
  name: "StrideSlice: /model/model_0_conv/layer/Conv_pf(0;1)_dim_2"
  type: "StrideSlice"
  bottom: "/model/model_0_conv/layer/Conv_pad_to1d_1:0"
  top: "/model/model_0_conv/layer/Conv_pf(0;1)_dim_2:0"
    scale_param {
    "InputShapes": "3x322x322"
    "OutputShape": "3x322x161"
    "Quantize[mn,mx]": [0, 1.0]
    "QuantizeBits": 8
    
    "RuntimeMemory": "166.03KB"
    "ScheduleId": "139"

  }

}
layer {
  name: "StrideSlice: /model/model_0_conv/layer/Conv_pf(0;0)_dim_2"
  type: "StrideSlice"
  bottom: "/model/model_0_conv/layer/Conv_pad_to1d_1:0"
  top: "/model/model_0_conv/layer/Conv_pf(0;0)_dim_2:0"
    scale_param {
    "InputShapes": "3x322x322"
    "OutputShape": "3x322x161"
    "Quantize[mn,mx]": [0, 1.0]
    "QuantizeBits": 8
    
    "RuntimeMemory": "166.03KB"
    "ScheduleId": "135"

  }

}
layer {
  name: "Transform: transform-76-/model/model_0_conv/layer/Conv_pf(1;1)_dim_2"
  type: "Transform"
  bottom: "/model/model_0_conv/layer/Conv_pf(1;1)_dim_2:0"
  top: "transform-76-/model/model_0_conv/layer/Conv_pf(1;1)_dim_2:0"
    scale_param {
    "InputShapes": "3x322x161"
    "OutputShape": "3x322x161"
    "Quantize[mn,mx]": [0, 1.0]
    "QuantizeBits": 8
    
    "RuntimeMemory": "181.13KB"
    "ScheduleId": "148"

  }

}
layer {
  name: "Transform: transform-77-/model/model_0_conv/layer/Conv_pf(1;0)_dim_2"
  type: "Transform"
  bottom: "/model/model_0_conv/layer/Conv_pf(1;0)_dim_2:0"
  top: "transform-77-/model/model_0_conv/layer/Conv_pf(1;0)_dim_2:0"
    scale_param {
    "InputShapes": "3x322x161"
    "OutputShape": "3x322x161"
    "Quantize[mn,mx]": [0, 1.0]
    "QuantizeBits": 8
    
    "RuntimeMemory": "181.13KB"
    "ScheduleId": "144"

  }

}
layer {
  name: "Transform: transform-78-/model/model_0_conv/layer/Conv_pf(0;1)_dim_2"
  type: "Transform"
  bottom: "/model/model_0_conv/layer/Conv_pf(0;1)_dim_2:0"
  top: "transform-78-/model/model_0_conv/layer/Conv_pf(0;1)_dim_2:0"
    scale_param {
    "InputShapes": "3x322x161"
    "OutputShape": "3x322x161"
    "Quantize[mn,mx]": [0, 1.0]
    "QuantizeBits": 8
    
    "RuntimeMemory": "181.13KB"
    "ScheduleId": "140"

  }

}
layer {
  name: "Transform: transform-79-/model/model_0_conv/layer/Conv_pf(0;0)_dim_2"
  type: "Transform"
  bottom: "/model/model_0_conv/layer/Conv_pf(0;0)_dim_2:0"
  top: "transform-79-/model/model_0_conv/layer/Conv_pf(0;0)_dim_2:0"
    scale_param {
    "InputShapes": "3x322x161"
    "OutputShape": "3x322x161"
    "Quantize[mn,mx]": [0, 1.0]
    "QuantizeBits": 8
    
    "RuntimeMemory": "181.13KB"
    "ScheduleId": "136"

  }

}
layer {
  name: "StrideSlice: /model/model_0_conv/layer/Conv_pf(1;1)"
  type: "StrideSlice"
  bottom: "transform-76-/model/model_0_conv/layer/Conv_pf(1;1)_dim_2:0"
  top: "/model/model_0_conv/layer/Conv_pf(1;1):0"
    scale_param {
    "InputShapes": "3x322x161"
    "OutputShape": "3x161x161"
    "Quantize[mn,mx]": [0, 1.0]
    "QuantizeBits": 8
    
    "RuntimeMemory": "90.56KB"
    "ScheduleId": "149"

  }

}
layer {
  name: "StrideSlice: /model/model_0_conv/layer/Conv_pf(1;0)"
  type: "StrideSlice"
  bottom: "transform-77-/model/model_0_conv/layer/Conv_pf(1;0)_dim_2:0"
  top: "/model/model_0_conv/layer/Conv_pf(1;0):0"
    scale_param {
    "InputShapes": "3x322x161"
    "OutputShape": "3x161x161"
    "Quantize[mn,mx]": [0, 1.0]
    "QuantizeBits": 8
    
    "RuntimeMemory": "90.56KB"
    "ScheduleId": "145"

  }

}
layer {
  name: "StrideSlice: /model/model_0_conv/layer/Conv_pf(0;1)"
  type: "StrideSlice"
  bottom: "transform-78-/model/model_0_conv/layer/Conv_pf(0;1)_dim_2:0"
  top: "/model/model_0_conv/layer/Conv_pf(0;1):0"
    scale_param {
    "InputShapes": "3x322x161"
    "OutputShape": "3x161x161"
    "Quantize[mn,mx]": [0, 1.0]
    "QuantizeBits": 8
    
    "RuntimeMemory": "90.56KB"
    "ScheduleId": "141"

  }

}
layer {
  name: "StrideSlice: /model/model_0_conv/layer/Conv_pf(0;0)"
  type: "StrideSlice"
  bottom: "transform-79-/model/model_0_conv/layer/Conv_pf(0;0)_dim_2:0"
  top: "/model/model_0_conv/layer/Conv_pf(0;0):0"
    scale_param {
    "InputShapes": "3x322x161"
    "OutputShape": "3x161x161"
    "Quantize[mn,mx]": [0, 1.0]
    "QuantizeBits": 8
    
    "RuntimeMemory": "90.56KB"
    "ScheduleId": "137"

  }

}
layer {
  name: "Transform: transform-75-/model/model_0_conv/layer/Conv_pf(1;1)"
  type: "Transform"
  bottom: "/model/model_0_conv/layer/Conv_pf(1;1):0"
  top: "transform-75-/model/model_0_conv/layer/Conv_pf(1;1):0"
    scale_param {
    "InputShapes": "3x161x161"
    "OutputShape": "3x161x161"
    "Quantize[mn,mx]": [0, 1.0]
    "QuantizeBits": 8
    
    "RuntimeMemory": "90.56KB"
    "ScheduleId": "150"

  }

}
layer {
  name: "Transform: transform-74-/model/model_0_conv/layer/Conv_pf(1;0)"
  type: "Transform"
  bottom: "/model/model_0_conv/layer/Conv_pf(1;0):0"
  top: "transform-74-/model/model_0_conv/layer/Conv_pf(1;0):0"
    scale_param {
    "InputShapes": "3x161x161"
    "OutputShape": "3x161x161"
    "Quantize[mn,mx]": [0, 1.0]
    "QuantizeBits": 8
    
    "RuntimeMemory": "90.56KB"
    "ScheduleId": "146"

  }

}
layer {
  name: "Transform: transform-73-/model/model_0_conv/layer/Conv_pf(0;1)"
  type: "Transform"
  bottom: "/model/model_0_conv/layer/Conv_pf(0;1):0"
  top: "transform-73-/model/model_0_conv/layer/Conv_pf(0;1):0"
    scale_param {
    "InputShapes": "3x161x161"
    "OutputShape": "3x161x161"
    "Quantize[mn,mx]": [0, 1.0]
    "QuantizeBits": 8
    
    "RuntimeMemory": "90.56KB"
    "ScheduleId": "142"

  }

}
layer {
  name: "Transform: transform-72-/model/model_0_conv/layer/Conv_pf(0;0)"
  type: "Transform"
  bottom: "/model/model_0_conv/layer/Conv_pf(0;0):0"
  top: "transform-72-/model/model_0_conv/layer/Conv_pf(0;0):0"
    scale_param {
    "InputShapes": "3x161x161"
    "OutputShape": "3x161x161"
    "Quantize[mn,mx]": [0, 1.0]
    "QuantizeBits": 8
    
    "RuntimeMemory": "90.56KB"
    "ScheduleId": "138"

  }

}
layer {
  name: "Concat: /model/model_0_conv/layer/Conv_concat"
  type: "Concat"
  bottom: "transform-72-/model/model_0_conv/layer/Conv_pf(0;0):0"
  bottom: "transform-73-/model/model_0_conv/layer/Conv_pf(0;1):0"
  bottom: "transform-74-/model/model_0_conv/layer/Conv_pf(1;0):0"
  bottom: "transform-75-/model/model_0_conv/layer/Conv_pf(1;1):0"
  top: "/model/model_0_conv/layer/Conv_concat:0"
    scale_param {
    "InputShapes": "3x161x161, 3x161x161, 3x161x161, 3x161x161"
    "OutputShape": "12x161x161"
    "Quantize[mn,mx]": [0, 1.0]
    "QuantizeBits": 8
    
    "RuntimeMemory": "362.25KB"
    "ScheduleId": "151"

  }

}
layer {
  name: "Transform: transform-71-/model/model_0_conv/layer/Conv_concat"
  type: "Transform"
  bottom: "/model/model_0_conv/layer/Conv_concat:0"
  top: "transform-71-/model/model_0_conv/layer/Conv_concat:0"
    scale_param {
    "InputShapes": "12x161x161"
    "OutputShape": "12x161x161"
    "Quantize[mn,mx]": [0, 1.0]
    "QuantizeBits": 8
    
    "RuntimeMemory": "362.25KB"
    "ScheduleId": "152"

  }

}
layer {
  name: "Conv2D: /model/model_0_conv/layer/Conv"
  type: "Convolution"
  bottom: "transform-71-/model/model_0_conv/layer/Conv_concat:0"
  top: "/model/model_0_act/Mul_smr:0"
    scale_param {
    "InputShapes": "12x161x161, 16x12x2x2, 16"
    "OutputShape": "16x160x160"
    "Quantize[mn,mx]": [-32.0, 32.0]
    "QuantizeBits": 16
    "ConstInputs": "/model/model_0_conv/WeightsSymmetricQuantizer_pf:0"
    "ConstInputs": "Variable.model.model_0_conv.layer.bias.uid2:0"
    "RuntimeMemory": "400.00KB"
    "ScheduleId": "153"

  }
  blobs {
    shape {
      dim: 16
      dim: 12
      dim: 2
      dim: 2
    }
  }
  blobs {
    shape {
      dim: 16
    }
  }
}
layer {
  name: "Swish: /model/model_0_act/Mul_smr"
  type: "Swish"
  bottom: "/model/model_0_act/Mul_smr:0"
  top: "/model/model_0_act/Mul_smr:0"
    scale_param {
    "InputShapes": "16x160x160"
    "OutputShape": "16x160x160"
    "Quantize[mn,mx]": [0, 32.0]
    "QuantizeBits": 8
    "ConstInputs": "/model/model_0_conv/WeightsSymmetricQuantizer_pf:0"
    "ConstInputs": "Variable.model.model_0_conv.layer.bias.uid2:0"
    "RuntimeMemory": "400.00KB"
    
  }

}
layer {
  name: "Pad: /model/Pad_to1d_0"
  type: "Pad"
  bottom: "/model/model_0_act/Mul_smr:0"
  top: "/model/Pad_to1d_0:0"
    scale_param {
    "InputShapes": "16x160x160"
    "OutputShape": "16x162x160"
    "Quantize[mn,mx]": [0, 32.0]
    "QuantizeBits": 8
    "HasScratch": "true"
    
    "RuntimeMemory": "405.00KB"
    "ScheduleId": "154"

  }

}
layer {
  name: "Transform: transform-70-/model/Pad_to1d_0"
  type: "Transform"
  bottom: "/model/Pad_to1d_0:0"
  top: "transform-70-/model/Pad_to1d_0:0"
    scale_param {
    "InputShapes": "16x162x160"
    "OutputShape": "16x162x160"
    "Quantize[mn,mx]": [0, 32.0]
    "QuantizeBits": 8
    
    "RuntimeMemory": "480.00KB"
    "ScheduleId": "155"

  }

}
layer {
  name: "Pad: /model/Pad_to1d_1"
  type: "Pad"
  bottom: "transform-70-/model/Pad_to1d_0:0"
  top: "/model/Pad_to1d_1:0"
    scale_param {
    "InputShapes": "16x162x160"
    "OutputShape": "16x162x162"
    "Quantize[mn,mx]": [0, 32.0]
    "QuantizeBits": 8
    "HasScratch": "true"
    
    "RuntimeMemory": "486.00KB"
    "ScheduleId": "156"

  }

}
layer {
  name: "StrideSlice: /model/model_1_conv/layer/Conv_pf(1;1)_dim_2"
  type: "StrideSlice"
  bottom: "/model/Pad_to1d_1:0"
  top: "/model/model_1_conv/layer/Conv_pf(1;1)_dim_2:0"
    scale_param {
    "InputShapes": "16x162x162"
    "OutputShape": "16x162x81"
    "Quantize[mn,mx]": [0, 32.0]
    "QuantizeBits": 8
    
    "RuntimeMemory": "243.00KB"
    "ScheduleId": "169"

  }

}
layer {
  name: "StrideSlice: /model/model_1_conv/layer/Conv_pf(1;0)_dim_2"
  type: "StrideSlice"
  bottom: "/model/Pad_to1d_1:0"
  top: "/model/model_1_conv/layer/Conv_pf(1;0)_dim_2:0"
    scale_param {
    "InputShapes": "16x162x162"
    "OutputShape": "16x162x81"
    "Quantize[mn,mx]": [0, 32.0]
    "QuantizeBits": 8
    
    "RuntimeMemory": "243.00KB"
    "ScheduleId": "165"

  }

}
layer {
  name: "StrideSlice: /model/model_1_conv/layer/Conv_pf(0;1)_dim_2"
  type: "StrideSlice"
  bottom: "/model/Pad_to1d_1:0"
  top: "/model/model_1_conv/layer/Conv_pf(0;1)_dim_2:0"
    scale_param {
    "InputShapes": "16x162x162"
    "OutputShape": "16x162x81"
    "Quantize[mn,mx]": [0, 32.0]
    "QuantizeBits": 8
    
    "RuntimeMemory": "243.00KB"
    "ScheduleId": "161"

  }

}
layer {
  name: "StrideSlice: /model/model_1_conv/layer/Conv_pf(0;0)_dim_2"
  type: "StrideSlice"
  bottom: "/model/Pad_to1d_1:0"
  top: "/model/model_1_conv/layer/Conv_pf(0;0)_dim_2:0"
    scale_param {
    "InputShapes": "16x162x162"
    "OutputShape": "16x162x81"
    "Quantize[mn,mx]": [0, 32.0]
    "QuantizeBits": 8
    
    "RuntimeMemory": "243.00KB"
    "ScheduleId": "157"

  }

}
layer {
  name: "Transform: transform-66-/model/model_1_conv/layer/Conv_pf(1;1)_dim_2"
  type: "Transform"
  bottom: "/model/model_1_conv/layer/Conv_pf(1;1)_dim_2:0"
  top: "transform-66-/model/model_1_conv/layer/Conv_pf(1;1)_dim_2:0"
    scale_param {
    "InputShapes": "16x162x81"
    "OutputShape": "16x162x81"
    "Quantize[mn,mx]": [0, 32.0]
    "QuantizeBits": 8
    
    "RuntimeMemory": "243.00KB"
    "ScheduleId": "170"

  }

}
layer {
  name: "Transform: transform-67-/model/model_1_conv/layer/Conv_pf(1;0)_dim_2"
  type: "Transform"
  bottom: "/model/model_1_conv/layer/Conv_pf(1;0)_dim_2:0"
  top: "transform-67-/model/model_1_conv/layer/Conv_pf(1;0)_dim_2:0"
    scale_param {
    "InputShapes": "16x162x81"
    "OutputShape": "16x162x81"
    "Quantize[mn,mx]": [0, 32.0]
    "QuantizeBits": 8
    
    "RuntimeMemory": "243.00KB"
    "ScheduleId": "166"

  }

}
layer {
  name: "Transform: transform-68-/model/model_1_conv/layer/Conv_pf(0;1)_dim_2"
  type: "Transform"
  bottom: "/model/model_1_conv/layer/Conv_pf(0;1)_dim_2:0"
  top: "transform-68-/model/model_1_conv/layer/Conv_pf(0;1)_dim_2:0"
    scale_param {
    "InputShapes": "16x162x81"
    "OutputShape": "16x162x81"
    "Quantize[mn,mx]": [0, 32.0]
    "QuantizeBits": 8
    
    "RuntimeMemory": "243.00KB"
    "ScheduleId": "162"

  }

}
layer {
  name: "Transform: transform-69-/model/model_1_conv/layer/Conv_pf(0;0)_dim_2"
  type: "Transform"
  bottom: "/model/model_1_conv/layer/Conv_pf(0;0)_dim_2:0"
  top: "transform-69-/model/model_1_conv/layer/Conv_pf(0;0)_dim_2:0"
    scale_param {
    "InputShapes": "16x162x81"
    "OutputShape": "16x162x81"
    "Quantize[mn,mx]": [0, 32.0]
    "QuantizeBits": 8
    
    "RuntimeMemory": "243.00KB"
    "ScheduleId": "158"

  }

}
layer {
  name: "StrideSlice: /model/model_1_conv/layer/Conv_pf(1;1)"
  type: "StrideSlice"
  bottom: "transform-66-/model/model_1_conv/layer/Conv_pf(1;1)_dim_2:0"
  top: "/model/model_1_conv/layer/Conv_pf(1;1):0"
    scale_param {
    "InputShapes": "16x162x81"
    "OutputShape": "16x81x81"
    "Quantize[mn,mx]": [0, 32.0]
    "QuantizeBits": 8
    
    "RuntimeMemory": "121.50KB"
    "ScheduleId": "171"

  }

}
layer {
  name: "StrideSlice: /model/model_1_conv/layer/Conv_pf(1;0)"
  type: "StrideSlice"
  bottom: "transform-67-/model/model_1_conv/layer/Conv_pf(1;0)_dim_2:0"
  top: "/model/model_1_conv/layer/Conv_pf(1;0):0"
    scale_param {
    "InputShapes": "16x162x81"
    "OutputShape": "16x81x81"
    "Quantize[mn,mx]": [0, 32.0]
    "QuantizeBits": 8
    
    "RuntimeMemory": "121.50KB"
    "ScheduleId": "167"

  }

}
layer {
  name: "StrideSlice: /model/model_1_conv/layer/Conv_pf(0;1)"
  type: "StrideSlice"
  bottom: "transform-68-/model/model_1_conv/layer/Conv_pf(0;1)_dim_2:0"
  top: "/model/model_1_conv/layer/Conv_pf(0;1):0"
    scale_param {
    "InputShapes": "16x162x81"
    "OutputShape": "16x81x81"
    "Quantize[mn,mx]": [0, 32.0]
    "QuantizeBits": 8
    
    "RuntimeMemory": "121.50KB"
    "ScheduleId": "163"

  }

}
layer {
  name: "StrideSlice: /model/model_1_conv/layer/Conv_pf(0;0)"
  type: "StrideSlice"
  bottom: "transform-69-/model/model_1_conv/layer/Conv_pf(0;0)_dim_2:0"
  top: "/model/model_1_conv/layer/Conv_pf(0;0):0"
    scale_param {
    "InputShapes": "16x162x81"
    "OutputShape": "16x81x81"
    "Quantize[mn,mx]": [0, 32.0]
    "QuantizeBits": 8
    
    "RuntimeMemory": "121.50KB"
    "ScheduleId": "159"

  }

}
layer {
  name: "Transform: transform-65-/model/model_1_conv/layer/Conv_pf(1;1)"
  type: "Transform"
  bottom: "/model/model_1_conv/layer/Conv_pf(1;1):0"
  top: "transform-65-/model/model_1_conv/layer/Conv_pf(1;1):0"
    scale_param {
    "InputShapes": "16x81x81"
    "OutputShape": "16x81x81"
    "Quantize[mn,mx]": [0, 32.0]
    "QuantizeBits": 8
    
    "RuntimeMemory": "121.50KB"
    "ScheduleId": "172"

  }

}
layer {
  name: "Transform: transform-64-/model/model_1_conv/layer/Conv_pf(1;0)"
  type: "Transform"
  bottom: "/model/model_1_conv/layer/Conv_pf(1;0):0"
  top: "transform-64-/model/model_1_conv/layer/Conv_pf(1;0):0"
    scale_param {
    "InputShapes": "16x81x81"
    "OutputShape": "16x81x81"
    "Quantize[mn,mx]": [0, 32.0]
    "QuantizeBits": 8
    
    "RuntimeMemory": "121.50KB"
    "ScheduleId": "168"

  }

}
layer {
  name: "Transform: transform-63-/model/model_1_conv/layer/Conv_pf(0;1)"
  type: "Transform"
  bottom: "/model/model_1_conv/layer/Conv_pf(0;1):0"
  top: "transform-63-/model/model_1_conv/layer/Conv_pf(0;1):0"
    scale_param {
    "InputShapes": "16x81x81"
    "OutputShape": "16x81x81"
    "Quantize[mn,mx]": [0, 32.0]
    "QuantizeBits": 8
    
    "RuntimeMemory": "121.50KB"
    "ScheduleId": "164"

  }

}
layer {
  name: "Transform: transform-62-/model/model_1_conv/layer/Conv_pf(0;0)"
  type: "Transform"
  bottom: "/model/model_1_conv/layer/Conv_pf(0;0):0"
  top: "transform-62-/model/model_1_conv/layer/Conv_pf(0;0):0"
    scale_param {
    "InputShapes": "16x81x81"
    "OutputShape": "16x81x81"
    "Quantize[mn,mx]": [0, 32.0]
    "QuantizeBits": 8
    
    "RuntimeMemory": "121.50KB"
    "ScheduleId": "160"

  }

}
layer {
  name: "Concat: /model/model_1_conv/layer/Conv_concat"
  type: "Concat"
  bottom: "transform-62-/model/model_1_conv/layer/Conv_pf(0;0):0"
  bottom: "transform-63-/model/model_1_conv/layer/Conv_pf(0;1):0"
  bottom: "transform-64-/model/model_1_conv/layer/Conv_pf(1;0):0"
  bottom: "transform-65-/model/model_1_conv/layer/Conv_pf(1;1):0"
  top: "/model/model_1_conv/layer/Conv_concat:0"
    scale_param {
    "InputShapes": "16x81x81, 16x81x81, 16x81x81, 16x81x81"
    "OutputShape": "64x81x81"
    "Quantize[mn,mx]": [0, 32.0]
    "QuantizeBits": 8
    
    "RuntimeMemory": "486.00KB"
    "ScheduleId": "173"

  }

}
layer {
  name: "Transform: transform-61-/model/model_1_conv/layer/Conv_concat"
  type: "Transform"
  bottom: "/model/model_1_conv/layer/Conv_concat:0"
  top: "transform-61-/model/model_1_conv/layer/Conv_concat:0"
    scale_param {
    "InputShapes": "64x81x81"
    "OutputShape": "64x81x81"
    "Quantize[mn,mx]": [0, 32.0]
    "QuantizeBits": 8
    
    "RuntimeMemory": "410.06KB"
    "ScheduleId": "174"

  }

}
layer {
  name: "Conv2D: /model/model_1_conv/layer/Conv"
  type: "Convolution"
  bottom: "transform-61-/model/model_1_conv/layer/Conv_concat:0"
  top: "/model/model_0_act_1/Mul_smr:0"
    scale_param {
    "InputShapes": "64x81x81, 32x64x2x2, 32"
    "OutputShape": "32x80x80"
    "Quantize[mn,mx]": [-64.0, 64.0]
    "QuantizeBits": 16
    "ConstInputs": "/model/model_1_conv/WeightsSymmetricQuantizer_pf:0"
    "ConstInputs": "Variable.model.model_1_conv.layer.bias.uid3:0"
    "RuntimeMemory": "200.00KB"
    "ScheduleId": "175"

  }
  blobs {
    shape {
      dim: 32
      dim: 64
      dim: 2
      dim: 2
    }
  }
  blobs {
    shape {
      dim: 32
    }
  }
}
layer {
  name: "Swish: /model/model_0_act_1/Mul_smr"
  type: "Swish"
  bottom: "/model/model_0_act_1/Mul_smr:0"
  top: "/model/model_0_act_1/Mul_smr:0"
    scale_param {
    "InputShapes": "32x80x80"
    "OutputShape": "32x80x80"
    "Quantize[mn,mx]": [0, 64.0]
    "QuantizeBits": 8
    "ConstInputs": "/model/model_1_conv/WeightsSymmetricQuantizer_pf:0"
    "ConstInputs": "Variable.model.model_1_conv.layer.bias.uid3:0"
    "RuntimeMemory": "200.00KB"
    
  }

}
layer {
  name: "Conv2D: /model/model_2_cv1_conv/layer/Conv"
  type: "Convolution"
  bottom: "/model/model_0_act_1/Mul_smr:0"
  top: "/model/model_0_act_2/Mul_smr:0"
    scale_param {
    "InputShapes": "32x80x80, 32x32x1x1, 32"
    "OutputShape": "32x80x80"
    "Quantize[mn,mx]": [-16.0, 16.0]
    "QuantizeBits": 16
    "ConstInputs": "/model/model_2_cv1_conv/WeightsSymmetricQuantizer:0"
    "ConstInputs": "Variable.model.model_2_cv1_conv.layer.bias.uid4:0"
    "RuntimeMemory": "200.00KB"
    "ScheduleId": "176"

  }
  blobs {
    shape {
      dim: 32
      dim: 32
      dim: 1
      dim: 1
    }
  }
  blobs {
    shape {
      dim: 32
    }
  }
}
layer {
  name: "Swish: /model/model_0_act_2/Mul_smr"
  type: "Swish"
  bottom: "/model/model_0_act_2/Mul_smr:0"
  top: "/model/model_0_act_2/Mul_smr:0"
    scale_param {
    "InputShapes": "32x80x80"
    "OutputShape": "32x80x80"
    "Quantize[mn,mx]": [-16.0, 16.0]
    "QuantizeBits": 8
    "ConstInputs": "/model/model_2_cv1_conv/WeightsSymmetricQuantizer:0"
    "ConstInputs": "Variable.model.model_2_cv1_conv.layer.bias.uid4:0"
    "RuntimeMemory": "200.00KB"
    
  }

}
layer {
  name: "Transform: transform-59-(F)/model/model_2_cv1_conv/layer/Conv"
  type: "Transform"
  bottom: "/model/model_0_act_2/Mul_smr:0"
  top: "transform-59-(F)/model/model_2_cv1_conv/layer/Conv:0"
    scale_param {
    "InputShapes": "32x80x80"
    "OutputShape": "32x80x80"
    "Quantize[mn,mx]": [-16.0, 16.0]
    "QuantizeBits": 8
    
    "RuntimeMemory": "240.00KB"
    "ScheduleId": "177"

  }

}
layer {
  name: "Transform: transform-60-(F)/model/model_2_cv1_conv/layer/Conv"
  type: "Transform"
  bottom: "/model/model_0_act_2/Mul_smr:0"
  top: "transform-60-(F)/model/model_2_cv1_conv/layer/Conv:0"
    scale_param {
    "InputShapes": "32x80x80"
    "OutputShape": "32x80x80"
    "Quantize[mn,mx]": [-16.0, 16.0]
    "QuantizeBits": 8
    
    "RuntimeMemory": "240.00KB"
    "ScheduleId": "179"

  }

}
layer {
  name: "StrideSlice: /model/Splitsts0"
  type: "StrideSlice"
  bottom: "transform-59-(F)/model/model_2_cv1_conv/layer/Conv:0"
  top: "/model/Splitsts0:0"
    scale_param {
    "InputShapes": "32x80x80"
    "OutputShape": "16x80x80"
    "Quantize[mn,mx]": [-16.0, 16.0]
    "QuantizeBits": 8
    
    "RuntimeMemory": "120.00KB"
    "ScheduleId": "178"

  }

}
layer {
  name: "StrideSlice: /model/Splitsts1"
  type: "StrideSlice"
  bottom: "transform-60-(F)/model/model_2_cv1_conv/layer/Conv:0"
  top: "/model/Splitsts1:0"
    scale_param {
    "InputShapes": "32x80x80"
    "OutputShape": "16x80x80"
    "Quantize[mn,mx]": [-16.0, 16.0]
    "QuantizeBits": 8
    
    "RuntimeMemory": "120.00KB"
    "ScheduleId": "180"

  }

}
layer {
  name: "Transform: transform-58-/model/Splitsts1"
  type: "Transform"
  bottom: "/model/Splitsts1:0"
  top: "transform-58-/model/Splitsts1:0"
    scale_param {
    "InputShapes": "16x80x80"
    "OutputShape": "16x80x80"
    "Quantize[mn,mx]": [-16.0, 16.0]
    "QuantizeBits": 8
    
    "RuntimeMemory": "120.00KB"
    "ScheduleId": "181"

  }

}
layer {
  name: "Transform: transform-58-0-/model/Splitsts1"
  type: "Transform"
  bottom: "transform-58-/model/Splitsts1:0"
  top: "transform-58-0-/model/Splitsts1:0"
    scale_param {
    "InputShapes": "16x80x80"
    "OutputShape": "16x80x80"
    "Quantize[mn,mx]": [-16.0, 16.0]
    "QuantizeBits": 8
    
    "RuntimeMemory": "123.00KB"
    "ScheduleId": "182"

  }

}
layer {
  name: "Transform: transform-58-1-/model/Splitsts1"
  type: "Transform"
  bottom: "transform-58-0-/model/Splitsts1:0"
  top: "transform-58-1-/model/Splitsts1:0"
    scale_param {
    "InputShapes": "16x80x80"
    "OutputShape": "16x80x80"
    "Quantize[mn,mx]": [-16.0, 16.0]
    "QuantizeBits": 8
    
    "RuntimeMemory": "120.00KB"
    "ScheduleId": "183"

  }

}
layer {
  name: "Transform: transform-58-2-/model/Splitsts1"
  type: "Transform"
  bottom: "transform-58-1-/model/Splitsts1:0"
  top: "transform-58-2-/model/Splitsts1:0"
    scale_param {
    "InputShapes": "16x80x80"
    "OutputShape": "16x80x80"
    "Quantize[mn,mx]": [-16.0, 16.0]
    "QuantizeBits": 8
    
    "RuntimeMemory": "123.00KB"
    "ScheduleId": "184"

  }

}
layer {
  name: "Transform: transform-58-3-/model/Splitsts1"
  type: "Transform"
  bottom: "transform-58-2-/model/Splitsts1:0"
  top: "transform-58-3-/model/Splitsts1:0"
    scale_param {
    "InputShapes": "16x80x80"
    "OutputShape": "16x80x80"
    "Quantize[mn,mx]": [-16.0, 16.0]
    "QuantizeBits": 8
    
    "RuntimeMemory": "123.00KB"
    "ScheduleId": "185"

  }

}
layer {
  name: "Conv2D: /model/model_2_m_0_cv1_conv/layer/Conv"
  type: "Convolution"
  bottom: "transform-58-3-/model/Splitsts1:0"
  top: "/model/model_0_act_3/Mul_smr:0"
    scale_param {
    "InputShapes": "16x80x80, 16x16x3x3, 16"
    "OutputShape": "16x80x80"
    "Quantize[mn,mx]": [-32.0, 32.0]
    "QuantizeBits": 16
    "ConstInputs": "/model/model_2_m_0_cv1_conv/WeightsSymmetricQuantizer:0"
    "ConstInputs": "Variable.model.model_2_m_0_cv1_conv.layer.bias.uid5:0"
    "RuntimeMemory": "120.00KB"
    "ScheduleId": "186"

  }
  blobs {
    shape {
      dim: 16
      dim: 16
      dim: 3
      dim: 3
    }
  }
  blobs {
    shape {
      dim: 16
    }
  }
}
layer {
  name: "Swish: /model/model_0_act_3/Mul_smr"
  type: "Swish"
  bottom: "/model/model_0_act_3/Mul_smr:0"
  top: "/model/model_0_act_3/Mul_smr:0"
    scale_param {
    "InputShapes": "16x80x80"
    "OutputShape": "16x80x80"
    "Quantize[mn,mx]": [0, 32.0]
    "QuantizeBits": 8
    "ConstInputs": "/model/model_2_m_0_cv1_conv/WeightsSymmetricQuantizer:0"
    "ConstInputs": "Variable.model.model_2_m_0_cv1_conv.layer.bias.uid5:0"
    "RuntimeMemory": "120.00KB"
    
  }

}
layer {
  name: "Pad: /model/Pad_1_to1d_0"
  type: "Pad"
  bottom: "/model/model_0_act_3/Mul_smr:0"
  top: "/model/Pad_1_to1d_0:0"
    scale_param {
    "InputShapes": "16x80x80"
    "OutputShape": "16x82x80"
    "Quantize[mn,mx]": [0, 32.0]
    "QuantizeBits": 8
    "HasScratch": "true"
    
    "RuntimeMemory": "123.00KB"
    "ScheduleId": "187"

  }

}
layer {
  name: "Transform: transform-57-/model/Pad_1_to1d_0"
  type: "Transform"
  bottom: "/model/Pad_1_to1d_0:0"
  top: "transform-57-/model/Pad_1_to1d_0:0"
    scale_param {
    "InputShapes": "16x82x80"
    "OutputShape": "16x82x80"
    "Quantize[mn,mx]": [0, 32.0]
    "QuantizeBits": 8
    
    "RuntimeMemory": "120.00KB"
    "ScheduleId": "188"

  }

}
layer {
  name: "Pad: /model/Pad_1_to1d_1"
  type: "Pad"
  bottom: "transform-57-/model/Pad_1_to1d_0:0"
  top: "/model/Pad_1_to1d_1:0"
    scale_param {
    "InputShapes": "16x82x80"
    "OutputShape": "16x82x82"
    "Quantize[mn,mx]": [0, 32.0]
    "QuantizeBits": 8
    "HasScratch": "true"
    
    "RuntimeMemory": "123.00KB"
    "ScheduleId": "189"

  }

}
layer {
  name: "Transform: transform-56-/model/Pad_1_to1d_1"
  type: "Transform"
  bottom: "/model/Pad_1_to1d_1:0"
  top: "transform-56-/model/Pad_1_to1d_1:0"
    scale_param {
    "InputShapes": "16x82x82"
    "OutputShape": "16x82x82"
    "Quantize[mn,mx]": [0, 32.0]
    "QuantizeBits": 8
    
    "RuntimeMemory": "123.00KB"
    "ScheduleId": "190"

  }

}
layer {
  name: "Conv2D: /model/model_2_m_0_cv2_conv/layer/Conv"
  type: "Convolution"
  bottom: "transform-56-/model/Pad_1_to1d_1:0"
  top: "/model/model_0_act_4/Mul_smr:0"
    scale_param {
    "InputShapes": "16x82x82, 16x16x3x3, 16"
    "OutputShape": "16x80x80"
    "Quantize[mn,mx]": [-32.0, 32.0]
    "QuantizeBits": 16
    "ConstInputs": "/model/model_2_m_0_cv2_conv/WeightsSymmetricQuantizer:0"
    "ConstInputs": "Variable.model.model_2_m_0_cv2_conv.layer.bias.uid6:0"
    "RuntimeMemory": "120.00KB"
    "ScheduleId": "191"

  }
  blobs {
    shape {
      dim: 16
      dim: 16
      dim: 3
      dim: 3
    }
  }
  blobs {
    shape {
      dim: 16
    }
  }
}
layer {
  name: "Swish: /model/model_0_act_4/Mul_smr"
  type: "Swish"
  bottom: "/model/model_0_act_4/Mul_smr:0"
  top: "/model/model_0_act_4/Mul_smr:0"
    scale_param {
    "InputShapes": "16x80x80"
    "OutputShape": "16x80x80"
    "Quantize[mn,mx]": [-32.0, 32.0]
    "QuantizeBits": 8
    "ConstInputs": "/model/model_2_m_0_cv2_conv/WeightsSymmetricQuantizer:0"
    "ConstInputs": "Variable.model.model_2_m_0_cv2_conv.layer.bias.uid6:0"
    "RuntimeMemory": "120.00KB"
    
  }

}
layer {
  name: "Transform: transform-55-(F)/model/model_2_m_0_cv2_conv/layer/Conv"
  type: "Transform"
  bottom: "/model/model_0_act_4/Mul_smr:0"
  top: "transform-55-(F)/model/model_2_m_0_cv2_conv/layer/Conv:0"
    scale_param {
    "InputShapes": "16x80x80"
    "OutputShape": "16x80x80"
    "Quantize[mn,mx]": [-32.0, 32.0]
    "QuantizeBits": 8
    
    "RuntimeMemory": "120.00KB"
    "ScheduleId": "192"

  }

}
layer {
  name: "Add: /model/Add_3"
  type: "Add"
  bottom: "/model/Splitsts1:0"
  bottom: "transform-55-(F)/model/model_2_m_0_cv2_conv/layer/Conv:0"
  top: "/model/Add_3:0"
    scale_param {
    "InputShapes": "16x80x80, 16x80x80"
    "OutputShape": "16x80x80"
    "Quantize[mn,mx]": [-32.0, 32.0]
    "QuantizeBits": 8
    
    "RuntimeMemory": "120.00KB"
    "ScheduleId": "193"

  }

}
layer {
  name: "Concat: /model/Concat_2"
  type: "Concat"
  bottom: "/model/Add_3:0"
  bottom: "/model/Splitsts0:0"
  bottom: "/model/Splitsts1:0"
  top: "/model/Concat_2:0"
    scale_param {
    "InputShapes": "16x80x80, 16x80x80, 16x80x80"
    "OutputShape": "48x80x80"
    "Quantize[mn,mx]": [-32.0, 32.0]
    "QuantizeBits": 8
    
    "RuntimeMemory": "360.00KB"
    "ScheduleId": "194"

  }

}
layer {
  name: "Transform: transform-54-/model/Concat_2"
  type: "Transform"
  bottom: "/model/Concat_2:0"
  top: "transform-54-/model/Concat_2:0"
    scale_param {
    "InputShapes": "48x80x80"
    "OutputShape": "48x80x80"
    "Quantize[mn,mx]": [-32.0, 32.0]
    "QuantizeBits": 8
    
    "RuntimeMemory": "400.00KB"
    "ScheduleId": "195"

  }

}
layer {
  name: "Conv2D: /model/model_2_cv2_conv/layer/Conv"
  type: "Convolution"
  bottom: "transform-54-/model/Concat_2:0"
  top: "/model/model_0_act_5/Mul_smr:0"
    scale_param {
    "InputShapes": "48x80x80, 32x48x1x1, 32"
    "OutputShape": "32x80x80"
    "Quantize[mn,mx]": [-8.0, 8.0]
    "QuantizeBits": 16
    "ConstInputs": "/model/model_2_cv2_conv/WeightsSymmetricQuantizer:0"
    "ConstInputs": "Variable.model.model_2_cv2_conv.layer.bias.uid7:0"
    "RuntimeMemory": "200.00KB"
    "ScheduleId": "196"

  }
  blobs {
    shape {
      dim: 32
      dim: 48
      dim: 1
      dim: 1
    }
  }
  blobs {
    shape {
      dim: 32
    }
  }
}
layer {
  name: "Swish: /model/model_0_act_5/Mul_smr"
  type: "Swish"
  bottom: "/model/model_0_act_5/Mul_smr:0"
  top: "/model/model_0_act_5/Mul_smr:0"
    scale_param {
    "InputShapes": "32x80x80"
    "OutputShape": "32x80x80"
    "Quantize[mn,mx]": [0, 8.0]
    "QuantizeBits": 8
    "ConstInputs": "/model/model_2_cv2_conv/WeightsSymmetricQuantizer:0"
    "ConstInputs": "Variable.model.model_2_cv2_conv.layer.bias.uid7:0"
    "RuntimeMemory": "200.00KB"
    
  }

}
layer {
  name: "Pad: /model/Pad_2_to1d_0"
  type: "Pad"
  bottom: "/model/model_0_act_5/Mul_smr:0"
  top: "/model/Pad_2_to1d_0:0"
    scale_param {
    "InputShapes": "32x80x80"
    "OutputShape": "32x82x80"
    "Quantize[mn,mx]": [0, 8.0]
    "QuantizeBits": 8
    "HasScratch": "true"
    
    "RuntimeMemory": "205.00KB"
    "ScheduleId": "197"

  }

}
layer {
  name: "Pad: /model/Pad_2_to1d_1"
  type: "Pad"
  bottom: "/model/Pad_2_to1d_0:0"
  top: "/model/Pad_2_to1d_1:0"
    scale_param {
    "InputShapes": "32x82x80"
    "OutputShape": "32x82x82"
    "Quantize[mn,mx]": [0, 8.0]
    "QuantizeBits": 8
    "HasScratch": "true"
    
    "RuntimeMemory": "210.13KB"
    "ScheduleId": "198"

  }

}
layer {
  name: "Conv2D: /model/model_3_conv/layer/Conv"
  type: "Convolution"
  bottom: "/model/Pad_2_to1d_1:0"
  top: "/model/model_0_act_6/Mul_smr:0"
    scale_param {
    "InputShapes": "32x82x82, 64x32x3x3, 64"
    "OutputShape": "64x40x40"
    "Quantize[mn,mx]": [-8.0, 8.0]
    "QuantizeBits": 16
    "ConstInputs": "/model/model_3_conv/WeightsSymmetricQuantizer:0"
    "ConstInputs": "Variable.model.model_3_conv.layer.bias.uid8:0"
    "RuntimeMemory": "100.00KB"
    "ScheduleId": "199"

  }
  blobs {
    shape {
      dim: 64
      dim: 32
      dim: 3
      dim: 3
    }
  }
  blobs {
    shape {
      dim: 64
    }
  }
}
layer {
  name: "Swish: /model/model_0_act_6/Mul_smr"
  type: "Swish"
  bottom: "/model/model_0_act_6/Mul_smr:0"
  top: "/model/model_0_act_6/Mul_smr:0"
    scale_param {
    "InputShapes": "64x40x40"
    "OutputShape": "64x40x40"
    "Quantize[mn,mx]": [0, 8.0]
    "QuantizeBits": 8
    "ConstInputs": "/model/model_3_conv/WeightsSymmetricQuantizer:0"
    "ConstInputs": "Variable.model.model_3_conv.layer.bias.uid8:0"
    "RuntimeMemory": "100.00KB"
    
  }

}
layer {
  name: "Conv2D: /model/model_4_cv1_conv/layer/Conv"
  type: "Convolution"
  bottom: "/model/model_0_act_6/Mul_smr:0"
  top: "/model/model_0_act_7/Mul_smr:0"
    scale_param {
    "InputShapes": "64x40x40, 64x64x1x1, 64"
    "OutputShape": "64x40x40"
    "Quantize[mn,mx]": [-8.0, 8.0]
    "QuantizeBits": 16
    "ConstInputs": "/model/model_4_cv1_conv/WeightsSymmetricQuantizer:0"
    "ConstInputs": "Variable.model.model_4_cv1_conv.layer.bias.uid9:0"
    "RuntimeMemory": "100.00KB"
    "ScheduleId": "200"

  }
  blobs {
    shape {
      dim: 64
      dim: 64
      dim: 1
      dim: 1
    }
  }
  blobs {
    shape {
      dim: 64
    }
  }
}
layer {
  name: "Swish: /model/model_0_act_7/Mul_smr"
  type: "Swish"
  bottom: "/model/model_0_act_7/Mul_smr:0"
  top: "/model/model_0_act_7/Mul_smr:0"
    scale_param {
    "InputShapes": "64x40x40"
    "OutputShape": "64x40x40"
    "Quantize[mn,mx]": [-8.0, 8.0]
    "QuantizeBits": 8
    "ConstInputs": "/model/model_4_cv1_conv/WeightsSymmetricQuantizer:0"
    "ConstInputs": "Variable.model.model_4_cv1_conv.layer.bias.uid9:0"
    "RuntimeMemory": "100.00KB"
    
  }

}
layer {
  name: "Transform: transform-52-(F)/model/model_4_cv1_conv/layer/Conv"
  type: "Transform"
  bottom: "/model/model_0_act_7/Mul_smr:0"
  top: "transform-52-(F)/model/model_4_cv1_conv/layer/Conv:0"
    scale_param {
    "InputShapes": "64x40x40"
    "OutputShape": "64x40x40"
    "Quantize[mn,mx]": [-8.0, 8.0]
    "QuantizeBits": 8
    
    "RuntimeMemory": "160.00KB"
    "ScheduleId": "201"

  }

}
layer {
  name: "Transform: transform-53-(F)/model/model_4_cv1_conv/layer/Conv"
  type: "Transform"
  bottom: "/model/model_0_act_7/Mul_smr:0"
  top: "transform-53-(F)/model/model_4_cv1_conv/layer/Conv:0"
    scale_param {
    "InputShapes": "64x40x40"
    "OutputShape": "64x40x40"
    "Quantize[mn,mx]": [-8.0, 8.0]
    "QuantizeBits": 8
    
    "RuntimeMemory": "160.00KB"
    "ScheduleId": "204"

  }

}
layer {
  name: "StrideSlice: /model/Split_1sts0"
  type: "StrideSlice"
  bottom: "transform-52-(F)/model/model_4_cv1_conv/layer/Conv:0"
  top: "/model/Split_1sts0:0"
    scale_param {
    "InputShapes": "64x40x40"
    "OutputShape": "32x40x40"
    "Quantize[mn,mx]": [-8.0, 8.0]
    "QuantizeBits": 8
    
    "RuntimeMemory": "80.00KB"
    "ScheduleId": "202"

  }

}
layer {
  name: "StrideSlice: /model/Split_1sts1"
  type: "StrideSlice"
  bottom: "transform-53-(F)/model/model_4_cv1_conv/layer/Conv:0"
  top: "/model/Split_1sts1:0"
    scale_param {
    "InputShapes": "64x40x40"
    "OutputShape": "32x40x40"
    "Quantize[mn,mx]": [-8.0, 8.0]
    "QuantizeBits": 8
    
    "RuntimeMemory": "80.00KB"
    "ScheduleId": "205"

  }

}
layer {
  name: "Transform: transform-48-/model/Split_1sts0"
  type: "Transform"
  bottom: "/model/Split_1sts0:0"
  top: "transform-48-/model/Split_1sts0:0"
    scale_param {
    "InputShapes": "32x40x40"
    "OutputShape": "32x40x40"
    "Quantize[mn,mx]": [-8.0, 8.0]
    "QuantizeBits": 8
    
    "RuntimeMemory": "50.00KB"
    "ScheduleId": "203"

  }

}
layer {
  name: "Transform: transform-49-/model/Split_1sts1"
  type: "Transform"
  bottom: "/model/Split_1sts1:0"
  top: "transform-49-/model/Split_1sts1:0"
    scale_param {
    "InputShapes": "32x40x40"
    "OutputShape": "32x40x40"
    "Quantize[mn,mx]": [-8.0, 8.0]
    "QuantizeBits": 8
    
    "RuntimeMemory": "50.00KB"
    "ScheduleId": "206"

  }

}
layer {
  name: "Transform: transform-50-/model/Split_1sts1"
  type: "Transform"
  bottom: "/model/Split_1sts1:0"
  top: "transform-50-/model/Split_1sts1:0"
    scale_param {
    "InputShapes": "32x40x40"
    "OutputShape": "32x40x40"
    "Quantize[mn,mx]": [-8.0, 8.0]
    "QuantizeBits": 8
    
    "RuntimeMemory": "50.00KB"
    "ScheduleId": "207"

  }

}
layer {
  name: "Transform: transform-51-/model/Split_1sts1"
  type: "Transform"
  bottom: "/model/Split_1sts1:0"
  top: "transform-51-/model/Split_1sts1:0"
    scale_param {
    "InputShapes": "32x40x40"
    "OutputShape": "32x40x40"
    "Quantize[mn,mx]": [-8.0, 8.0]
    "QuantizeBits": 8
    
    "RuntimeMemory": "50.00KB"
    "ScheduleId": "208"

  }

}
layer {
  name: "Conv2D: /model/model_4_m_0_cv1_conv/layer/Conv"
  type: "Convolution"
  bottom: "transform-51-/model/Split_1sts1:0"
  top: "/model/model_0_act_8/Mul_smr:0"
    scale_param {
    "InputShapes": "32x40x40, 32x32x3x3, 32"
    "OutputShape": "32x40x40"
    "Quantize[mn,mx]": [-8.0, 8.0]
    "QuantizeBits": 16
    "ConstInputs": "/model/model_4_m_0_cv1_conv/WeightsSymmetricQuantizer:0"
    "ConstInputs": "Variable.model.model_4_m_0_cv1_conv.layer.bias.uid10:0"
    "RuntimeMemory": "50.00KB"
    "ScheduleId": "209"

  }
  blobs {
    shape {
      dim: 32
      dim: 32
      dim: 3
      dim: 3
    }
  }
  blobs {
    shape {
      dim: 32
    }
  }
}
layer {
  name: "Swish: /model/model_0_act_8/Mul_smr"
  type: "Swish"
  bottom: "/model/model_0_act_8/Mul_smr:0"
  top: "/model/model_0_act_8/Mul_smr:0"
    scale_param {
    "InputShapes": "32x40x40"
    "OutputShape": "32x40x40"
    "Quantize[mn,mx]": [-4.0, 4.0]
    "QuantizeBits": 8
    "ConstInputs": "/model/model_4_m_0_cv1_conv/WeightsSymmetricQuantizer:0"
    "ConstInputs": "Variable.model.model_4_m_0_cv1_conv.layer.bias.uid10:0"
    "RuntimeMemory": "50.00KB"
    
  }

}
layer {
  name: "Conv2D: /model/model_4_m_0_cv2_conv/layer/Conv"
  type: "Convolution"
  bottom: "/model/model_0_act_8/Mul_smr:0"
  top: "/model/model_0_act_9/Mul_smr:0"
    scale_param {
    "InputShapes": "32x40x40, 32x32x3x3, 32"
    "OutputShape": "32x40x40"
    "Quantize[mn,mx]": [-8.0, 8.0]
    "QuantizeBits": 16
    "ConstInputs": "/model/model_4_m_0_cv2_conv/WeightsSymmetricQuantizer:0"
    "ConstInputs": "Variable.model.model_4_m_0_cv2_conv.layer.bias.uid11:0"
    "RuntimeMemory": "50.00KB"
    "ScheduleId": "210"

  }
  blobs {
    shape {
      dim: 32
      dim: 32
      dim: 3
      dim: 3
    }
  }
  blobs {
    shape {
      dim: 32
    }
  }
}
layer {
  name: "Swish: /model/model_0_act_9/Mul_smr"
  type: "Swish"
  bottom: "/model/model_0_act_9/Mul_smr:0"
  top: "/model/model_0_act_9/Mul_smr:0"
    scale_param {
    "InputShapes": "32x40x40"
    "OutputShape": "32x40x40"
    "Quantize[mn,mx]": [-4.0, 4.0]
    "QuantizeBits": 8
    "ConstInputs": "/model/model_4_m_0_cv2_conv/WeightsSymmetricQuantizer:0"
    "ConstInputs": "Variable.model.model_4_m_0_cv2_conv.layer.bias.uid11:0"
    "RuntimeMemory": "50.00KB"
    
  }

}
layer {
  name: "Add: /model/Add_6"
  type: "Add"
  bottom: "/model/model_0_act_9/Mul_smr:0"
  bottom: "transform-50-/model/Split_1sts1:0"
  top: "/model/Add_6:0"
    scale_param {
    "InputShapes": "32x40x40, 32x40x40"
    "OutputShape": "32x40x40"
    "Quantize[mn,mx]": [-8.0, 8.0]
    "QuantizeBits": 8
    
    "RuntimeMemory": "50.00KB"
    "ScheduleId": "211"

  }

}
layer {
  name: "Conv2D: /model/model_4_m_1_cv1_conv/layer/Conv"
  type: "Convolution"
  bottom: "/model/Add_6:0"
  top: "/model/model_0_act_10/Mul_smr:0"
    scale_param {
    "InputShapes": "32x40x40, 32x32x3x3, 32"
    "OutputShape": "32x40x40"
    "Quantize[mn,mx]": [-8.0, 8.0]
    "QuantizeBits": 16
    "ConstInputs": "/model/model_4_m_1_cv1_conv/WeightsSymmetricQuantizer:0"
    "ConstInputs": "Variable.model.model_4_m_1_cv1_conv.layer.bias.uid12:0"
    "RuntimeMemory": "50.00KB"
    "ScheduleId": "212"

  }
  blobs {
    shape {
      dim: 32
      dim: 32
      dim: 3
      dim: 3
    }
  }
  blobs {
    shape {
      dim: 32
    }
  }
}
layer {
  name: "Swish: /model/model_0_act_10/Mul_smr"
  type: "Swish"
  bottom: "/model/model_0_act_10/Mul_smr:0"
  top: "/model/model_0_act_10/Mul_smr:0"
    scale_param {
    "InputShapes": "32x40x40"
    "OutputShape": "32x40x40"
    "Quantize[mn,mx]": [-4.0, 4.0]
    "QuantizeBits": 8
    "ConstInputs": "/model/model_4_m_1_cv1_conv/WeightsSymmetricQuantizer:0"
    "ConstInputs": "Variable.model.model_4_m_1_cv1_conv.layer.bias.uid12:0"
    "RuntimeMemory": "50.00KB"
    
  }

}
layer {
  name: "Conv2D: /model/model_4_m_1_cv2_conv/layer/Conv"
  type: "Convolution"
  bottom: "/model/model_0_act_10/Mul_smr:0"
  top: "/model/model_0_act_11/Mul_smr:0"
    scale_param {
    "InputShapes": "32x40x40, 32x32x3x3, 32"
    "OutputShape": "32x40x40"
    "Quantize[mn,mx]": [-8.0, 8.0]
    "QuantizeBits": 16
    "ConstInputs": "/model/model_4_m_1_cv2_conv/WeightsSymmetricQuantizer:0"
    "ConstInputs": "Variable.model.model_4_m_1_cv2_conv.layer.bias.uid13:0"
    "RuntimeMemory": "50.00KB"
    "ScheduleId": "213"

  }
  blobs {
    shape {
      dim: 32
      dim: 32
      dim: 3
      dim: 3
    }
  }
  blobs {
    shape {
      dim: 32
    }
  }
}
layer {
  name: "Swish: /model/model_0_act_11/Mul_smr"
  type: "Swish"
  bottom: "/model/model_0_act_11/Mul_smr:0"
  top: "/model/model_0_act_11/Mul_smr:0"
    scale_param {
    "InputShapes": "32x40x40"
    "OutputShape": "32x40x40"
    "Quantize[mn,mx]": [-8.0, 8.0]
    "QuantizeBits": 8
    "ConstInputs": "/model/model_4_m_1_cv2_conv/WeightsSymmetricQuantizer:0"
    "ConstInputs": "Variable.model.model_4_m_1_cv2_conv.layer.bias.uid13:0"
    "RuntimeMemory": "50.00KB"
    
  }

}
layer {
  name: "Add: /model/Add_7"
  type: "Add"
  bottom: "/model/Add_6:0"
  bottom: "/model/model_0_act_11/Mul_smr:0"
  top: "/model/Add_7:0"
    scale_param {
    "InputShapes": "32x40x40, 32x40x40"
    "OutputShape": "32x40x40"
    "Quantize[mn,mx]": [-8.0, 8.0]
    "QuantizeBits": 8
    
    "RuntimeMemory": "50.00KB"
    "ScheduleId": "214"

  }

}
layer {
  name: "Concat: /model/Concat_4"
  type: "Concat"
  bottom: "/model/Add_6:0"
  bottom: "/model/Add_7:0"
  bottom: "transform-48-/model/Split_1sts0:0"
  bottom: "transform-49-/model/Split_1sts1:0"
  top: "/model/Concat_4:0"
    scale_param {
    "InputShapes": "32x40x40, 32x40x40, 32x40x40, 32x40x40"
    "OutputShape": "128x40x40"
    "Quantize[mn,mx]": [-8.0, 8.0]
    "QuantizeBits": 8
    
    "RuntimeMemory": "200.00KB"
    "ScheduleId": "215"

  }

}
layer {
  name: "Conv2D: /model/model_4_cv2_conv/layer/Conv"
  type: "Convolution"
  bottom: "/model/Concat_4:0"
  top: "/model/model_0_act_12/Mul_smr:0"
    scale_param {
    "InputShapes": "128x40x40, 64x128x1x1, 64"
    "OutputShape": "64x40x40"
    "Quantize[mn,mx]": [-8.0, 8.0]
    "QuantizeBits": 16
    "ConstInputs": "/model/model_4_cv2_conv/WeightsSymmetricQuantizer:0"
    "ConstInputs": "Variable.model.model_4_cv2_conv.layer.bias.uid14:0"
    "RuntimeMemory": "100.00KB"
    "ScheduleId": "216"

  }
  blobs {
    shape {
      dim: 64
      dim: 128
      dim: 1
      dim: 1
    }
  }
  blobs {
    shape {
      dim: 64
    }
  }
}
layer {
  name: "Swish: /model/model_0_act_12/Mul_smr"
  type: "Swish"
  bottom: "/model/model_0_act_12/Mul_smr:0"
  top: "/model/model_0_act_12/Mul_smr:0"
    scale_param {
    "InputShapes": "64x40x40"
    "OutputShape": "64x40x40"
    "Quantize[mn,mx]": [-4.0, 4.0]
    "QuantizeBits": 8
    "ConstInputs": "/model/model_4_cv2_conv/WeightsSymmetricQuantizer:0"
    "ConstInputs": "Variable.model.model_4_cv2_conv.layer.bias.uid14:0"
    "RuntimeMemory": "100.00KB"
    
  }

}
layer {
  name: "Conv2D: /model/model_5_conv/layer/Conv"
  type: "Convolution"
  bottom: "/model/model_0_act_12/Mul_smr:0"
  top: "/model/model_0_act_13/Mul_smr:0"
    scale_param {
    "InputShapes": "64x40x40, 128x64x3x3, 128"
    "OutputShape": "128x20x20"
    "Quantize[mn,mx]": [-8.0, 8.0]
    "QuantizeBits": 16
    "ConstInputs": "/model/model_5_conv/WeightsSymmetricQuantizer:0"
    "ConstInputs": "Variable.model.model_5_conv.layer.bias.uid15:0"
    "RuntimeMemory": "50.00KB"
    "ScheduleId": "217"

  }
  blobs {
    shape {
      dim: 128
      dim: 64
      dim: 3
      dim: 3
    }
  }
  blobs {
    shape {
      dim: 128
    }
  }
}
layer {
  name: "Swish: /model/model_0_act_13/Mul_smr"
  type: "Swish"
  bottom: "/model/model_0_act_13/Mul_smr:0"
  top: "/model/model_0_act_13/Mul_smr:0"
    scale_param {
    "InputShapes": "128x20x20"
    "OutputShape": "128x20x20"
    "Quantize[mn,mx]": [-4.0, 4.0]
    "QuantizeBits": 8
    "ConstInputs": "/model/model_5_conv/WeightsSymmetricQuantizer:0"
    "ConstInputs": "Variable.model.model_5_conv.layer.bias.uid15:0"
    "RuntimeMemory": "50.00KB"
    
  }

}
layer {
  name: "Conv2D: /model/model_6_cv1_conv/layer/Conv"
  type: "Convolution"
  bottom: "/model/model_0_act_13/Mul_smr:0"
  top: "/model/model_0_act_14/Mul_smr:0"
    scale_param {
    "InputShapes": "128x20x20, 128x128x1x1, 128"
    "OutputShape": "128x20x20"
    "Quantize[mn,mx]": [-8.0, 8.0]
    "QuantizeBits": 16
    "ConstInputs": "/model/model_6_cv1_conv/WeightsSymmetricQuantizer:0"
    "ConstInputs": "Variable.model.model_6_cv1_conv.layer.bias.uid16:0"
    "RuntimeMemory": "50.00KB"
    "ScheduleId": "218"

  }
  blobs {
    shape {
      dim: 128
      dim: 128
      dim: 1
      dim: 1
    }
  }
  blobs {
    shape {
      dim: 128
    }
  }
}
layer {
  name: "Swish: /model/model_0_act_14/Mul_smr"
  type: "Swish"
  bottom: "/model/model_0_act_14/Mul_smr:0"
  top: "/model/model_0_act_14/Mul_smr:0"
    scale_param {
    "InputShapes": "128x20x20"
    "OutputShape": "128x20x20"
    "Quantize[mn,mx]": [-8.0, 8.0]
    "QuantizeBits": 8
    "ConstInputs": "/model/model_6_cv1_conv/WeightsSymmetricQuantizer:0"
    "ConstInputs": "Variable.model.model_6_cv1_conv.layer.bias.uid16:0"
    "RuntimeMemory": "50.00KB"
    
  }

}
layer {
  name: "Transform: transform-46-(F)/model/model_6_cv1_conv/layer/Conv"
  type: "Transform"
  bottom: "/model/model_0_act_14/Mul_smr:0"
  top: "transform-46-(F)/model/model_6_cv1_conv/layer/Conv:0"
    scale_param {
    "InputShapes": "128x20x20"
    "OutputShape": "128x20x20"
    "Quantize[mn,mx]": [-8.0, 8.0]
    "QuantizeBits": 8
    
    "RuntimeMemory": "80.00KB"
    "ScheduleId": "219"

  }

}
layer {
  name: "Transform: transform-47-(F)/model/model_6_cv1_conv/layer/Conv"
  type: "Transform"
  bottom: "/model/model_0_act_14/Mul_smr:0"
  top: "transform-47-(F)/model/model_6_cv1_conv/layer/Conv:0"
    scale_param {
    "InputShapes": "128x20x20"
    "OutputShape": "128x20x20"
    "Quantize[mn,mx]": [-8.0, 8.0]
    "QuantizeBits": 8
    
    "RuntimeMemory": "80.00KB"
    "ScheduleId": "222"

  }

}
layer {
  name: "StrideSlice: /model/Split_2sts0"
  type: "StrideSlice"
  bottom: "transform-46-(F)/model/model_6_cv1_conv/layer/Conv:0"
  top: "/model/Split_2sts0:0"
    scale_param {
    "InputShapes": "128x20x20"
    "OutputShape": "64x20x20"
    "Quantize[mn,mx]": [-8.0, 8.0]
    "QuantizeBits": 8
    
    "RuntimeMemory": "40.00KB"
    "ScheduleId": "220"

  }

}
layer {
  name: "StrideSlice: /model/Split_2sts1"
  type: "StrideSlice"
  bottom: "transform-47-(F)/model/model_6_cv1_conv/layer/Conv:0"
  top: "/model/Split_2sts1:0"
    scale_param {
    "InputShapes": "128x20x20"
    "OutputShape": "64x20x20"
    "Quantize[mn,mx]": [-8.0, 8.0]
    "QuantizeBits": 8
    
    "RuntimeMemory": "40.00KB"
    "ScheduleId": "223"

  }

}
layer {
  name: "Transform: transform-42-/model/Split_2sts0"
  type: "Transform"
  bottom: "/model/Split_2sts0:0"
  top: "transform-42-/model/Split_2sts0:0"
    scale_param {
    "InputShapes": "64x20x20"
    "OutputShape": "64x20x20"
    "Quantize[mn,mx]": [-8.0, 8.0]
    "QuantizeBits": 8
    
    "RuntimeMemory": "25.00KB"
    "ScheduleId": "221"

  }

}
layer {
  name: "Transform: transform-43-/model/Split_2sts1"
  type: "Transform"
  bottom: "/model/Split_2sts1:0"
  top: "transform-43-/model/Split_2sts1:0"
    scale_param {
    "InputShapes": "64x20x20"
    "OutputShape": "64x20x20"
    "Quantize[mn,mx]": [-8.0, 8.0]
    "QuantizeBits": 8
    
    "RuntimeMemory": "25.00KB"
    "ScheduleId": "224"

  }

}
layer {
  name: "Transform: transform-44-/model/Split_2sts1"
  type: "Transform"
  bottom: "/model/Split_2sts1:0"
  top: "transform-44-/model/Split_2sts1:0"
    scale_param {
    "InputShapes": "64x20x20"
    "OutputShape": "64x20x20"
    "Quantize[mn,mx]": [-8.0, 8.0]
    "QuantizeBits": 8
    
    "RuntimeMemory": "25.00KB"
    "ScheduleId": "225"

  }

}
layer {
  name: "Transform: transform-45-/model/Split_2sts1"
  type: "Transform"
  bottom: "/model/Split_2sts1:0"
  top: "transform-45-/model/Split_2sts1:0"
    scale_param {
    "InputShapes": "64x20x20"
    "OutputShape": "64x20x20"
    "Quantize[mn,mx]": [-8.0, 8.0]
    "QuantizeBits": 8
    
    "RuntimeMemory": "25.00KB"
    "ScheduleId": "226"

  }

}
layer {
  name: "Conv2D: /model/model_6_m_0_cv1_conv/layer/Conv"
  type: "Convolution"
  bottom: "transform-45-/model/Split_2sts1:0"
  top: "/model/model_0_act_15/Mul_smr:0"
    scale_param {
    "InputShapes": "64x20x20, 64x64x3x3, 64"
    "OutputShape": "64x20x20"
    "Quantize[mn,mx]": [-8.0, 8.0]
    "QuantizeBits": 16
    "ConstInputs": "/model/model_6_m_0_cv1_conv/WeightsSymmetricQuantizer:0"
    "ConstInputs": "Variable.model.model_6_m_0_cv1_conv.layer.bias.uid17:0"
    "RuntimeMemory": "25.00KB"
    "ScheduleId": "227"

  }
  blobs {
    shape {
      dim: 64
      dim: 64
      dim: 3
      dim: 3
    }
  }
  blobs {
    shape {
      dim: 64
    }
  }
}
layer {
  name: "Swish: /model/model_0_act_15/Mul_smr"
  type: "Swish"
  bottom: "/model/model_0_act_15/Mul_smr:0"
  top: "/model/model_0_act_15/Mul_smr:0"
    scale_param {
    "InputShapes": "64x20x20"
    "OutputShape": "64x20x20"
    "Quantize[mn,mx]": [0, 8.0]
    "QuantizeBits": 8
    "ConstInputs": "/model/model_6_m_0_cv1_conv/WeightsSymmetricQuantizer:0"
    "ConstInputs": "Variable.model.model_6_m_0_cv1_conv.layer.bias.uid17:0"
    "RuntimeMemory": "25.00KB"
    
  }

}
layer {
  name: "Pad: /model/Pad_3_to1d_0"
  type: "Pad"
  bottom: "/model/model_0_act_15/Mul_smr:0"
  top: "/model/Pad_3_to1d_0:0"
    scale_param {
    "InputShapes": "64x20x20"
    "OutputShape": "64x22x20"
    "Quantize[mn,mx]": [0, 8.0]
    "QuantizeBits": 8
    "HasScratch": "true"
    
    "RuntimeMemory": "27.50KB"
    "ScheduleId": "228"

  }

}
layer {
  name: "Pad: /model/Pad_3_to1d_1"
  type: "Pad"
  bottom: "/model/Pad_3_to1d_0:0"
  top: "/model/Pad_3_to1d_1:0"
    scale_param {
    "InputShapes": "64x22x20"
    "OutputShape": "64x22x22"
    "Quantize[mn,mx]": [0, 8.0]
    "QuantizeBits": 8
    "HasScratch": "true"
    
    "RuntimeMemory": "30.25KB"
    "ScheduleId": "229"

  }

}
layer {
  name: "Conv2D: /model/model_6_m_0_cv2_conv/layer/Conv"
  type: "Convolution"
  bottom: "/model/Pad_3_to1d_1:0"
  top: "/model/model_0_act_16/Mul_smr:0"
    scale_param {
    "InputShapes": "64x22x22, 64x64x3x3, 64"
    "OutputShape": "64x20x20"
    "Quantize[mn,mx]": [-8.0, 8.0]
    "QuantizeBits": 16
    "ConstInputs": "/model/model_6_m_0_cv2_conv/WeightsSymmetricQuantizer:0"
    "ConstInputs": "Variable.model.model_6_m_0_cv2_conv.layer.bias.uid18:0"
    "RuntimeMemory": "25.00KB"
    "ScheduleId": "230"

  }
  blobs {
    shape {
      dim: 64
      dim: 64
      dim: 3
      dim: 3
    }
  }
  blobs {
    shape {
      dim: 64
    }
  }
}
layer {
  name: "Swish: /model/model_0_act_16/Mul_smr"
  type: "Swish"
  bottom: "/model/model_0_act_16/Mul_smr:0"
  top: "/model/model_0_act_16/Mul_smr:0"
    scale_param {
    "InputShapes": "64x20x20"
    "OutputShape": "64x20x20"
    "Quantize[mn,mx]": [-8.0, 8.0]
    "QuantizeBits": 8
    "ConstInputs": "/model/model_6_m_0_cv2_conv/WeightsSymmetricQuantizer:0"
    "ConstInputs": "Variable.model.model_6_m_0_cv2_conv.layer.bias.uid18:0"
    "RuntimeMemory": "25.00KB"
    
  }

}
layer {
  name: "Add: /model/Add_9"
  type: "Add"
  bottom: "/model/model_0_act_16/Mul_smr:0"
  bottom: "transform-44-/model/Split_2sts1:0"
  top: "/model/Add_9:0"
    scale_param {
    "InputShapes": "64x20x20, 64x20x20"
    "OutputShape": "64x20x20"
    "Quantize[mn,mx]": [-8.0, 8.0]
    "QuantizeBits": 8
    
    "RuntimeMemory": "25.00KB"
    "ScheduleId": "231"

  }

}
layer {
  name: "Conv2D: /model/model_6_m_1_cv1_conv/layer/Conv"
  type: "Convolution"
  bottom: "/model/Add_9:0"
  top: "/model/model_0_act_17/Mul_smr:0"
    scale_param {
    "InputShapes": "64x20x20, 64x64x3x3, 64"
    "OutputShape": "64x20x20"
    "Quantize[mn,mx]": [-8.0, 8.0]
    "QuantizeBits": 16
    "ConstInputs": "/model/model_6_m_1_cv1_conv/WeightsSymmetricQuantizer:0"
    "ConstInputs": "Variable.model.model_6_m_1_cv1_conv.layer.bias.uid19:0"
    "RuntimeMemory": "25.00KB"
    "ScheduleId": "232"

  }
  blobs {
    shape {
      dim: 64
      dim: 64
      dim: 3
      dim: 3
    }
  }
  blobs {
    shape {
      dim: 64
    }
  }
}
layer {
  name: "Swish: /model/model_0_act_17/Mul_smr"
  type: "Swish"
  bottom: "/model/model_0_act_17/Mul_smr:0"
  top: "/model/model_0_act_17/Mul_smr:0"
    scale_param {
    "InputShapes": "64x20x20"
    "OutputShape": "64x20x20"
    "Quantize[mn,mx]": [0, 8.0]
    "QuantizeBits": 8
    "ConstInputs": "/model/model_6_m_1_cv1_conv/WeightsSymmetricQuantizer:0"
    "ConstInputs": "Variable.model.model_6_m_1_cv1_conv.layer.bias.uid19:0"
    "RuntimeMemory": "25.00KB"
    
  }

}
layer {
  name: "Pad: /model/Pad_4_to1d_0"
  type: "Pad"
  bottom: "/model/model_0_act_17/Mul_smr:0"
  top: "/model/Pad_4_to1d_0:0"
    scale_param {
    "InputShapes": "64x20x20"
    "OutputShape": "64x22x20"
    "Quantize[mn,mx]": [0, 8.0]
    "QuantizeBits": 8
    "HasScratch": "true"
    
    "RuntimeMemory": "27.50KB"
    "ScheduleId": "233"

  }

}
layer {
  name: "Pad: /model/Pad_4_to1d_1"
  type: "Pad"
  bottom: "/model/Pad_4_to1d_0:0"
  top: "/model/Pad_4_to1d_1:0"
    scale_param {
    "InputShapes": "64x22x20"
    "OutputShape": "64x22x22"
    "Quantize[mn,mx]": [0, 8.0]
    "QuantizeBits": 8
    "HasScratch": "true"
    
    "RuntimeMemory": "30.25KB"
    "ScheduleId": "234"

  }

}
layer {
  name: "Conv2D: /model/model_6_m_1_cv2_conv/layer/Conv"
  type: "Convolution"
  bottom: "/model/Pad_4_to1d_1:0"
  top: "/model/model_0_act_18/Mul_smr:0"
    scale_param {
    "InputShapes": "64x22x22, 64x64x3x3, 64"
    "OutputShape": "64x20x20"
    "Quantize[mn,mx]": [-8.0, 8.0]
    "QuantizeBits": 16
    "ConstInputs": "/model/model_6_m_1_cv2_conv/WeightsSymmetricQuantizer:0"
    "ConstInputs": "Variable.model.model_6_m_1_cv2_conv.layer.bias.uid20:0"
    "RuntimeMemory": "25.00KB"
    "ScheduleId": "235"

  }
  blobs {
    shape {
      dim: 64
      dim: 64
      dim: 3
      dim: 3
    }
  }
  blobs {
    shape {
      dim: 64
    }
  }
}
layer {
  name: "Swish: /model/model_0_act_18/Mul_smr"
  type: "Swish"
  bottom: "/model/model_0_act_18/Mul_smr:0"
  top: "/model/model_0_act_18/Mul_smr:0"
    scale_param {
    "InputShapes": "64x20x20"
    "OutputShape": "64x20x20"
    "Quantize[mn,mx]": [-8.0, 8.0]
    "QuantizeBits": 8
    "ConstInputs": "/model/model_6_m_1_cv2_conv/WeightsSymmetricQuantizer:0"
    "ConstInputs": "Variable.model.model_6_m_1_cv2_conv.layer.bias.uid20:0"
    "RuntimeMemory": "25.00KB"
    
  }

}
layer {
  name: "Add: /model/Add_11"
  type: "Add"
  bottom: "/model/Add_9:0"
  bottom: "/model/model_0_act_18/Mul_smr:0"
  top: "/model/Add_11:0"
    scale_param {
    "InputShapes": "64x20x20, 64x20x20"
    "OutputShape": "64x20x20"
    "Quantize[mn,mx]": [-8.0, 8.0]
    "QuantizeBits": 8
    
    "RuntimeMemory": "25.00KB"
    "ScheduleId": "236"

  }

}
layer {
  name: "Concat: /model/Concat_7"
  type: "Concat"
  bottom: "/model/Add_11:0"
  bottom: "/model/Add_9:0"
  bottom: "transform-42-/model/Split_2sts0:0"
  bottom: "transform-43-/model/Split_2sts1:0"
  top: "/model/Concat_7:0"
    scale_param {
    "InputShapes": "64x20x20, 64x20x20, 64x20x20, 64x20x20"
    "OutputShape": "256x20x20"
    "Quantize[mn,mx]": [-8.0, 8.0]
    "QuantizeBits": 8
    
    "RuntimeMemory": "100.00KB"
    "ScheduleId": "237"

  }

}
layer {
  name: "Conv2D: /model/model_6_cv2_conv/layer/Conv"
  type: "Convolution"
  bottom: "/model/Concat_7:0"
  top: "/model/model_0_act_19/Mul_smr:0"
    scale_param {
    "InputShapes": "256x20x20, 128x256x1x1, 128"
    "OutputShape": "128x20x20"
    "Quantize[mn,mx]": [-8.0, 8.0]
    "QuantizeBits": 16
    "ConstInputs": "/model/model_6_cv2_conv/WeightsSymmetricQuantizer:0"
    "ConstInputs": "Variable.model.model_6_cv2_conv.layer.bias.uid21:0"
    "RuntimeMemory": "50.00KB"
    "ScheduleId": "238"

  }
  blobs {
    shape {
      dim: 128
      dim: 256
      dim: 1
      dim: 1
    }
  }
  blobs {
    shape {
      dim: 128
    }
  }
}
layer {
  name: "Swish: /model/model_0_act_19/Mul_smr"
  type: "Swish"
  bottom: "/model/model_0_act_19/Mul_smr:0"
  top: "/model/model_0_act_19/Mul_smr:0"
    scale_param {
    "InputShapes": "128x20x20"
    "OutputShape": "128x20x20"
    "Quantize[mn,mx]": [-4.0, 4.0]
    "QuantizeBits": 8
    "ConstInputs": "/model/model_6_cv2_conv/WeightsSymmetricQuantizer:0"
    "ConstInputs": "Variable.model.model_6_cv2_conv.layer.bias.uid21:0"
    "RuntimeMemory": "50.00KB"
    
  }

}
layer {
  name: "Conv2D: /model/model_7_conv/layer/Conv"
  type: "Convolution"
  bottom: "/model/model_0_act_19/Mul_smr:0"
  top: "/model/model_0_act_20/Mul_smr:0"
    scale_param {
    "InputShapes": "128x20x20, 256x128x3x3, 256"
    "OutputShape": "256x10x10"
    "Quantize[mn,mx]": [-8.0, 8.0]
    "QuantizeBits": 16
    "ConstInputs": "/model/model_7_conv/WeightsSymmetricQuantizer:0"
    "ConstInputs": "Variable.model.model_7_conv.layer.bias.uid22:0"
    "RuntimeMemory": "25.00KB"
    "ScheduleId": "239"

  }
  blobs {
    shape {
      dim: 256
      dim: 128
      dim: 3
      dim: 3
    }
  }
  blobs {
    shape {
      dim: 256
    }
  }
}
layer {
  name: "Swish: /model/model_0_act_20/Mul_smr"
  type: "Swish"
  bottom: "/model/model_0_act_20/Mul_smr:0"
  top: "/model/model_0_act_20/Mul_smr:0"
    scale_param {
    "InputShapes": "256x10x10"
    "OutputShape": "256x10x10"
    "Quantize[mn,mx]": [0, 8.0]
    "QuantizeBits": 8
    "ConstInputs": "/model/model_7_conv/WeightsSymmetricQuantizer:0"
    "ConstInputs": "Variable.model.model_7_conv.layer.bias.uid22:0"
    "RuntimeMemory": "25.00KB"
    
  }

}
layer {
  name: "Conv2D: /model/model_8_cv1_conv/layer/Conv"
  type: "Convolution"
  bottom: "/model/model_0_act_20/Mul_smr:0"
  top: "/model/model_0_act_21/Mul_smr:0"
    scale_param {
    "InputShapes": "256x10x10, 256x256x1x1, 256"
    "OutputShape": "256x10x10"
    "Quantize[mn,mx]": [-8.0, 8.0]
    "QuantizeBits": 16
    "ConstInputs": "/model/model_8_cv1_conv/WeightsSymmetricQuantizer:0"
    "ConstInputs": "Variable.model.model_8_cv1_conv.layer.bias.uid23:0"
    "RuntimeMemory": "25.00KB"
    "ScheduleId": "240"

  }
  blobs {
    shape {
      dim: 256
      dim: 256
      dim: 1
      dim: 1
    }
  }
  blobs {
    shape {
      dim: 256
    }
  }
}
layer {
  name: "Swish: /model/model_0_act_21/Mul_smr"
  type: "Swish"
  bottom: "/model/model_0_act_21/Mul_smr:0"
  top: "/model/model_0_act_21/Mul_smr:0"
    scale_param {
    "InputShapes": "256x10x10"
    "OutputShape": "256x10x10"
    "Quantize[mn,mx]": [-8.0, 8.0]
    "QuantizeBits": 8
    "ConstInputs": "/model/model_8_cv1_conv/WeightsSymmetricQuantizer:0"
    "ConstInputs": "Variable.model.model_8_cv1_conv.layer.bias.uid23:0"
    "RuntimeMemory": "25.00KB"
    
  }

}
layer {
  name: "Transform: transform-40-(F)/model/model_8_cv1_conv/layer/Conv"
  type: "Transform"
  bottom: "/model/model_0_act_21/Mul_smr:0"
  top: "transform-40-(F)/model/model_8_cv1_conv/layer/Conv:0"
    scale_param {
    "InputShapes": "256x10x10"
    "OutputShape": "256x10x10"
    "Quantize[mn,mx]": [-8.0, 8.0]
    "QuantizeBits": 8
    
    "RuntimeMemory": "80.00KB"
    "ScheduleId": "241"

  }

}
layer {
  name: "Transform: transform-41-(F)/model/model_8_cv1_conv/layer/Conv"
  type: "Transform"
  bottom: "/model/model_0_act_21/Mul_smr:0"
  top: "transform-41-(F)/model/model_8_cv1_conv/layer/Conv:0"
    scale_param {
    "InputShapes": "256x10x10"
    "OutputShape": "256x10x10"
    "Quantize[mn,mx]": [-8.0, 8.0]
    "QuantizeBits": 8
    
    "RuntimeMemory": "80.00KB"
    "ScheduleId": "244"

  }

}
layer {
  name: "StrideSlice: /model/Split_3sts0"
  type: "StrideSlice"
  bottom: "transform-40-(F)/model/model_8_cv1_conv/layer/Conv:0"
  top: "/model/Split_3sts0:0"
    scale_param {
    "InputShapes": "256x10x10"
    "OutputShape": "128x10x10"
    "Quantize[mn,mx]": [-8.0, 8.0]
    "QuantizeBits": 8
    
    "RuntimeMemory": "40.00KB"
    "ScheduleId": "242"

  }

}
layer {
  name: "StrideSlice: /model/Split_3sts1"
  type: "StrideSlice"
  bottom: "transform-41-(F)/model/model_8_cv1_conv/layer/Conv:0"
  top: "/model/Split_3sts1:0"
    scale_param {
    "InputShapes": "256x10x10"
    "OutputShape": "128x10x10"
    "Quantize[mn,mx]": [-8.0, 8.0]
    "QuantizeBits": 8
    
    "RuntimeMemory": "40.00KB"
    "ScheduleId": "245"

  }

}
layer {
  name: "Transform: transform-36-/model/Split_3sts0"
  type: "Transform"
  bottom: "/model/Split_3sts0:0"
  top: "transform-36-/model/Split_3sts0:0"
    scale_param {
    "InputShapes": "128x10x10"
    "OutputShape": "128x10x10"
    "Quantize[mn,mx]": [-8.0, 8.0]
    "QuantizeBits": 8
    
    "RuntimeMemory": "12.50KB"
    "ScheduleId": "243"

  }

}
layer {
  name: "Transform: transform-37-/model/Split_3sts1"
  type: "Transform"
  bottom: "/model/Split_3sts1:0"
  top: "transform-37-/model/Split_3sts1:0"
    scale_param {
    "InputShapes": "128x10x10"
    "OutputShape": "128x10x10"
    "Quantize[mn,mx]": [-8.0, 8.0]
    "QuantizeBits": 8
    
    "RuntimeMemory": "12.50KB"
    "ScheduleId": "246"

  }

}
layer {
  name: "Transform: transform-38-/model/Split_3sts1"
  type: "Transform"
  bottom: "/model/Split_3sts1:0"
  top: "transform-38-/model/Split_3sts1:0"
    scale_param {
    "InputShapes": "128x10x10"
    "OutputShape": "128x10x10"
    "Quantize[mn,mx]": [-8.0, 8.0]
    "QuantizeBits": 8
    
    "RuntimeMemory": "12.50KB"
    "ScheduleId": "247"

  }

}
layer {
  name: "Transform: transform-39-/model/Split_3sts1"
  type: "Transform"
  bottom: "/model/Split_3sts1:0"
  top: "transform-39-/model/Split_3sts1:0"
    scale_param {
    "InputShapes": "128x10x10"
    "OutputShape": "128x10x10"
    "Quantize[mn,mx]": [-8.0, 8.0]
    "QuantizeBits": 8
    
    "RuntimeMemory": "12.50KB"
    "ScheduleId": "248"

  }

}
layer {
  name: "Conv2D: /model/model_8_m_0_cv1_conv/layer/Conv"
  type: "Convolution"
  bottom: "transform-39-/model/Split_3sts1:0"
  top: "/model/model_0_act_22/Mul_smr:0"
    scale_param {
    "InputShapes": "128x10x10, 128x128x3x3, 128"
    "OutputShape": "128x10x10"
    "Quantize[mn,mx]": [-8.0, 8.0]
    "QuantizeBits": 16
    "ConstInputs": "/model/model_8_m_0_cv1_conv/WeightsSymmetricQuantizer:0"
    "ConstInputs": "Variable.model.model_8_m_0_cv1_conv.layer.bias.uid24:0"
    "RuntimeMemory": "12.50KB"
    "ScheduleId": "249"

  }
  blobs {
    shape {
      dim: 128
      dim: 128
      dim: 3
      dim: 3
    }
  }
  blobs {
    shape {
      dim: 128
    }
  }
}
layer {
  name: "Swish: /model/model_0_act_22/Mul_smr"
  type: "Swish"
  bottom: "/model/model_0_act_22/Mul_smr:0"
  top: "/model/model_0_act_22/Mul_smr:0"
    scale_param {
    "InputShapes": "128x10x10"
    "OutputShape": "128x10x10"
    "Quantize[mn,mx]": [-4.0, 4.0]
    "QuantizeBits": 8
    "ConstInputs": "/model/model_8_m_0_cv1_conv/WeightsSymmetricQuantizer:0"
    "ConstInputs": "Variable.model.model_8_m_0_cv1_conv.layer.bias.uid24:0"
    "RuntimeMemory": "12.50KB"
    
  }

}
layer {
  name: "Conv2D: /model/model_8_m_0_cv2_conv/layer/Conv"
  type: "Convolution"
  bottom: "/model/model_0_act_22/Mul_smr:0"
  top: "/model/model_0_act_23/Mul_smr:0"
    scale_param {
    "InputShapes": "128x10x10, 128x128x3x3, 128"
    "OutputShape": "128x10x10"
    "Quantize[mn,mx]": [-8.0, 8.0]
    "QuantizeBits": 16
    "ConstInputs": "/model/model_8_m_0_cv2_conv/WeightsSymmetricQuantizer:0"
    "ConstInputs": "Variable.model.model_8_m_0_cv2_conv.layer.bias.uid25:0"
    "RuntimeMemory": "12.50KB"
    "ScheduleId": "250"

  }
  blobs {
    shape {
      dim: 128
      dim: 128
      dim: 3
      dim: 3
    }
  }
  blobs {
    shape {
      dim: 128
    }
  }
}
layer {
  name: "Swish: /model/model_0_act_23/Mul_smr"
  type: "Swish"
  bottom: "/model/model_0_act_23/Mul_smr:0"
  top: "/model/model_0_act_23/Mul_smr:0"
    scale_param {
    "InputShapes": "128x10x10"
    "OutputShape": "128x10x10"
    "Quantize[mn,mx]": [-8.0, 8.0]
    "QuantizeBits": 8
    "ConstInputs": "/model/model_8_m_0_cv2_conv/WeightsSymmetricQuantizer:0"
    "ConstInputs": "Variable.model.model_8_m_0_cv2_conv.layer.bias.uid25:0"
    "RuntimeMemory": "12.50KB"
    
  }

}
layer {
  name: "Add: /model/Add_13"
  type: "Add"
  bottom: "/model/model_0_act_23/Mul_smr:0"
  bottom: "transform-38-/model/Split_3sts1:0"
  top: "/model/Add_13:0"
    scale_param {
    "InputShapes": "128x10x10, 128x10x10"
    "OutputShape": "128x10x10"
    "Quantize[mn,mx]": [-8.0, 8.0]
    "QuantizeBits": 8
    
    "RuntimeMemory": "12.50KB"
    "ScheduleId": "251"

  }

}
layer {
  name: "Concat: /model/Concat_8"
  type: "Concat"
  bottom: "/model/Add_13:0"
  bottom: "transform-36-/model/Split_3sts0:0"
  bottom: "transform-37-/model/Split_3sts1:0"
  top: "/model/Concat_8:0"
    scale_param {
    "InputShapes": "128x10x10, 128x10x10, 128x10x10"
    "OutputShape": "384x10x10"
    "Quantize[mn,mx]": [-8.0, 8.0]
    "QuantizeBits": 8
    
    "RuntimeMemory": "37.50KB"
    "ScheduleId": "252"

  }

}
layer {
  name: "Conv2D: /model/model_8_cv2_conv/layer/Conv"
  type: "Convolution"
  bottom: "/model/Concat_8:0"
  top: "/model/model_0_act_24/Mul_smr:0"
    scale_param {
    "InputShapes": "384x10x10, 256x384x1x1, 256"
    "OutputShape": "256x10x10"
    "Quantize[mn,mx]": [-8.0, 8.0]
    "QuantizeBits": 16
    "ConstInputs": "/model/model_8_cv2_conv/WeightsSymmetricQuantizer:0"
    "ConstInputs": "Variable.model.model_8_cv2_conv.layer.bias.uid26:0"
    "RuntimeMemory": "25.00KB"
    "ScheduleId": "253"

  }
  blobs {
    shape {
      dim: 256
      dim: 384
      dim: 1
      dim: 1
    }
  }
  blobs {
    shape {
      dim: 256
    }
  }
}
layer {
  name: "Swish: /model/model_0_act_24/Mul_smr"
  type: "Swish"
  bottom: "/model/model_0_act_24/Mul_smr:0"
  top: "/model/model_0_act_24/Mul_smr:0"
    scale_param {
    "InputShapes": "256x10x10"
    "OutputShape": "256x10x10"
    "Quantize[mn,mx]": [0, 8.0]
    "QuantizeBits": 8
    "ConstInputs": "/model/model_8_cv2_conv/WeightsSymmetricQuantizer:0"
    "ConstInputs": "Variable.model.model_8_cv2_conv.layer.bias.uid26:0"
    "RuntimeMemory": "25.00KB"
    
  }

}
layer {
  name: "Conv2D: /model/model_9_cv1_conv/layer/Conv"
  type: "Convolution"
  bottom: "/model/model_0_act_24/Mul_smr:0"
  top: "/model/model_9_cv1_conv/layer/Conv:0"
    scale_param {
    "InputShapes": "256x10x10, 128x256x1x1, 128"
    "OutputShape": "128x10x10"
    "Quantize[mn,mx]": [-8.0, 8.0]
    "QuantizeBits": 8
    "ConstInputs": "/model/model_9_cv1_conv/WeightsSymmetricQuantizer:0"
    "ConstInputs": "Variable.model.model_9_cv1_conv.layer.bias.uid27:0"
    "RuntimeMemory": "12.50KB"
    "ScheduleId": "254"

  }
  blobs {
    shape {
      dim: 128
      dim: 256
      dim: 1
      dim: 1
    }
  }
  blobs {
    shape {
      dim: 128
    }
  }
}
layer {
  name: "MaxPool: /model/model_9_m/MaxPool"
  type: "MaxPool"
  bottom: "/model/model_9_cv1_conv/layer/Conv:0"
  top: "/model/model_9_m/MaxPool:0"
    scale_param {
    "InputShapes": "128x10x10"
    "OutputShape": "128x10x10"
    "Quantize[mn,mx]": [-8.0, 8.0]
    "QuantizeBits": 8
    
    "RuntimeMemory": "12.50KB"
    "ScheduleId": "255"

  }

}
layer {
  name: "MaxPool: /model/model_9_m_1/MaxPool"
  type: "MaxPool"
  bottom: "/model/model_9_m/MaxPool:0"
  top: "/model/model_9_m_1/MaxPool:0"
    scale_param {
    "InputShapes": "128x10x10"
    "OutputShape": "128x10x10"
    "Quantize[mn,mx]": [-8.0, 8.0]
    "QuantizeBits": 8
    
    "RuntimeMemory": "12.50KB"
    "ScheduleId": "256"

  }

}
layer {
  name: "MaxPool: /model/model_9_m_2/MaxPool"
  type: "MaxPool"
  bottom: "/model/model_9_m_1/MaxPool:0"
  top: "/model/model_9_m_2/MaxPool:0"
    scale_param {
    "InputShapes": "128x10x10"
    "OutputShape": "128x10x10"
    "Quantize[mn,mx]": [-8.0, 8.0]
    "QuantizeBits": 8
    
    "RuntimeMemory": "12.50KB"
    "ScheduleId": "257"

  }

}
layer {
  name: "Concat: /model/Concat_9"
  type: "Concat"
  bottom: "/model/model_9_cv1_conv/layer/Conv:0"
  bottom: "/model/model_9_m/MaxPool:0"
  bottom: "/model/model_9_m_1/MaxPool:0"
  bottom: "/model/model_9_m_2/MaxPool:0"
  top: "/model/Concat_9:0"
    scale_param {
    "InputShapes": "128x10x10, 128x10x10, 128x10x10, 128x10x10"
    "OutputShape": "512x10x10"
    "Quantize[mn,mx]": [-8.0, 8.0]
    "QuantizeBits": 8
    
    "RuntimeMemory": "50.00KB"
    "ScheduleId": "258"

  }

}
layer {
  name: "Conv2D: /model/model_9_cv2_conv/layer/Conv"
  type: "Convolution"
  bottom: "/model/Concat_9:0"
  top: "/model/model_0_act_25/Mul_smr:0"
    scale_param {
    "InputShapes": "512x10x10, 256x512x1x1, 256"
    "OutputShape": "256x10x10"
    "Quantize[mn,mx]": [-8.0, 8.0]
    "QuantizeBits": 16
    "ConstInputs": "/model/model_9_cv2_conv/WeightsSymmetricQuantizer:0"
    "ConstInputs": "Variable.model.model_9_cv2_conv.layer.bias.uid28:0"
    "RuntimeMemory": "25.00KB"
    "ScheduleId": "259"

  }
  blobs {
    shape {
      dim: 256
      dim: 512
      dim: 1
      dim: 1
    }
  }
  blobs {
    shape {
      dim: 256
    }
  }
}
layer {
  name: "Swish: /model/model_0_act_25/Mul_smr"
  type: "Swish"
  bottom: "/model/model_0_act_25/Mul_smr:0"
  top: "/model/model_0_act_25/Mul_smr:0"
    scale_param {
    "InputShapes": "256x10x10"
    "OutputShape": "256x10x10"
    "Quantize[mn,mx]": [-4.0, 4.0]
    "QuantizeBits": 8
    "ConstInputs": "/model/model_9_cv2_conv/WeightsSymmetricQuantizer:0"
    "ConstInputs": "Variable.model.model_9_cv2_conv.layer.bias.uid28:0"
    "RuntimeMemory": "25.00KB"
    
  }

}
layer {
  name: "Resize: /model/model_10/Resize"
  type: "Resize"
  bottom: "/model/model_0_act_25/Mul_smr:0"
  top: "/model/model_10/Resize:0"
    scale_param {
    "InputShapes": "256x10x10"
    "OutputShape": "256x20x20"
    "Quantize[mn,mx]": [-4.0, 4.0]
    "QuantizeBits": 8
    "HasScratch": "true"
    
    "RuntimeMemory": "100.00KB"
    "ScheduleId": "260"

  }

}
layer {
  name: "Concat: /model/Concat_10"
  type: "Concat"
  bottom: "/model/model_0_act_19/Mul_smr:0"
  bottom: "/model/model_10/Resize:0"
  top: "/model/Concat_10:0"
    scale_param {
    "InputShapes": "256x20x20, 128x20x20"
    "OutputShape": "384x20x20"
    "Quantize[mn,mx]": [-4.0, 4.0]
    "QuantizeBits": 8
    
    "RuntimeMemory": "150.00KB"
    "ScheduleId": "261"

  }

}
layer {
  name: "Conv2D: /model/model_12_cv1_conv/layer/Conv"
  type: "Convolution"
  bottom: "/model/Concat_10:0"
  top: "/model/model_0_act_26/Mul_smr:0"
    scale_param {
    "InputShapes": "384x20x20, 128x384x1x1, 128"
    "OutputShape": "128x20x20"
    "Quantize[mn,mx]": [-8.0, 8.0]
    "QuantizeBits": 16
    "ConstInputs": "/model/model_12_cv1_conv/WeightsSymmetricQuantizer:0"
    "ConstInputs": "Variable.model.model_12_cv1_conv.layer.bias.uid29:0"
    "RuntimeMemory": "50.00KB"
    "ScheduleId": "262"

  }
  blobs {
    shape {
      dim: 128
      dim: 384
      dim: 1
      dim: 1
    }
  }
  blobs {
    shape {
      dim: 128
    }
  }
}
layer {
  name: "Swish: /model/model_0_act_26/Mul_smr"
  type: "Swish"
  bottom: "/model/model_0_act_26/Mul_smr:0"
  top: "/model/model_0_act_26/Mul_smr:0"
    scale_param {
    "InputShapes": "128x20x20"
    "OutputShape": "128x20x20"
    "Quantize[mn,mx]": [-8.0, 8.0]
    "QuantizeBits": 8
    "ConstInputs": "/model/model_12_cv1_conv/WeightsSymmetricQuantizer:0"
    "ConstInputs": "Variable.model.model_12_cv1_conv.layer.bias.uid29:0"
    "RuntimeMemory": "50.00KB"
    
  }

}
layer {
  name: "Transform: transform-34-(F)/model/model_12_cv1_conv/layer/Conv"
  type: "Transform"
  bottom: "/model/model_0_act_26/Mul_smr:0"
  top: "transform-34-(F)/model/model_12_cv1_conv/layer/Conv:0"
    scale_param {
    "InputShapes": "128x20x20"
    "OutputShape": "128x20x20"
    "Quantize[mn,mx]": [-8.0, 8.0]
    "QuantizeBits": 8
    
    "RuntimeMemory": "80.00KB"
    "ScheduleId": "263"

  }

}
layer {
  name: "Transform: transform-35-(F)/model/model_12_cv1_conv/layer/Conv"
  type: "Transform"
  bottom: "/model/model_0_act_26/Mul_smr:0"
  top: "transform-35-(F)/model/model_12_cv1_conv/layer/Conv:0"
    scale_param {
    "InputShapes": "128x20x20"
    "OutputShape": "128x20x20"
    "Quantize[mn,mx]": [-8.0, 8.0]
    "QuantizeBits": 8
    
    "RuntimeMemory": "80.00KB"
    "ScheduleId": "266"

  }

}
layer {
  name: "StrideSlice: /model/Split_4sts0"
  type: "StrideSlice"
  bottom: "transform-34-(F)/model/model_12_cv1_conv/layer/Conv:0"
  top: "/model/Split_4sts0:0"
    scale_param {
    "InputShapes": "128x20x20"
    "OutputShape": "64x20x20"
    "Quantize[mn,mx]": [-8.0, 8.0]
    "QuantizeBits": 8
    
    "RuntimeMemory": "40.00KB"
    "ScheduleId": "264"

  }

}
layer {
  name: "StrideSlice: /model/Split_4sts1"
  type: "StrideSlice"
  bottom: "transform-35-(F)/model/model_12_cv1_conv/layer/Conv:0"
  top: "/model/Split_4sts1:0"
    scale_param {
    "InputShapes": "128x20x20"
    "OutputShape": "64x20x20"
    "Quantize[mn,mx]": [-8.0, 8.0]
    "QuantizeBits": 8
    
    "RuntimeMemory": "40.00KB"
    "ScheduleId": "267"

  }

}
layer {
  name: "Transform: transform-31-/model/Split_4sts0"
  type: "Transform"
  bottom: "/model/Split_4sts0:0"
  top: "transform-31-/model/Split_4sts0:0"
    scale_param {
    "InputShapes": "64x20x20"
    "OutputShape": "64x20x20"
    "Quantize[mn,mx]": [-8.0, 8.0]
    "QuantizeBits": 8
    
    "RuntimeMemory": "25.00KB"
    "ScheduleId": "265"

  }

}
layer {
  name: "Transform: transform-32-/model/Split_4sts1"
  type: "Transform"
  bottom: "/model/Split_4sts1:0"
  top: "transform-32-/model/Split_4sts1:0"
    scale_param {
    "InputShapes": "64x20x20"
    "OutputShape": "64x20x20"
    "Quantize[mn,mx]": [-8.0, 8.0]
    "QuantizeBits": 8
    
    "RuntimeMemory": "25.00KB"
    "ScheduleId": "268"

  }

}
layer {
  name: "Transform: transform-33-/model/Split_4sts1"
  type: "Transform"
  bottom: "/model/Split_4sts1:0"
  top: "transform-33-/model/Split_4sts1:0"
    scale_param {
    "InputShapes": "64x20x20"
    "OutputShape": "64x20x20"
    "Quantize[mn,mx]": [-8.0, 8.0]
    "QuantizeBits": 8
    
    "RuntimeMemory": "25.00KB"
    "ScheduleId": "269"

  }

}
layer {
  name: "Conv2D: /model/model_12_m_0_cv1_conv/layer/Conv"
  type: "Convolution"
  bottom: "transform-33-/model/Split_4sts1:0"
  top: "/model/model_0_act_27/Mul_smr:0"
    scale_param {
    "InputShapes": "64x20x20, 64x64x3x3, 64"
    "OutputShape": "64x20x20"
    "Quantize[mn,mx]": [-8.0, 8.0]
    "QuantizeBits": 16
    "ConstInputs": "/model/model_12_m_0_cv1_conv/WeightsSymmetricQuantizer:0"
    "ConstInputs": "Variable.model.model_12_m_0_cv1_conv.layer.bias.uid30:0"
    "RuntimeMemory": "25.00KB"
    "ScheduleId": "270"

  }
  blobs {
    shape {
      dim: 64
      dim: 64
      dim: 3
      dim: 3
    }
  }
  blobs {
    shape {
      dim: 64
    }
  }
}
layer {
  name: "Swish: /model/model_0_act_27/Mul_smr"
  type: "Swish"
  bottom: "/model/model_0_act_27/Mul_smr:0"
  top: "/model/model_0_act_27/Mul_smr:0"
    scale_param {
    "InputShapes": "64x20x20"
    "OutputShape": "64x20x20"
    "Quantize[mn,mx]": [-4.0, 4.0]
    "QuantizeBits": 8
    "ConstInputs": "/model/model_12_m_0_cv1_conv/WeightsSymmetricQuantizer:0"
    "ConstInputs": "Variable.model.model_12_m_0_cv1_conv.layer.bias.uid30:0"
    "RuntimeMemory": "25.00KB"
    
  }

}
layer {
  name: "Conv2D: /model/model_12_m_0_cv2_conv/layer/Conv"
  type: "Convolution"
  bottom: "/model/model_0_act_27/Mul_smr:0"
  top: "/model/model_0_act_28/Mul_smr:0"
    scale_param {
    "InputShapes": "64x20x20, 64x64x3x3, 64"
    "OutputShape": "64x20x20"
    "Quantize[mn,mx]": [-8.0, 8.0]
    "QuantizeBits": 16
    "ConstInputs": "/model/model_12_m_0_cv2_conv/WeightsSymmetricQuantizer:0"
    "ConstInputs": "Variable.model.model_12_m_0_cv2_conv.layer.bias.uid31:0"
    "RuntimeMemory": "25.00KB"
    "ScheduleId": "271"

  }
  blobs {
    shape {
      dim: 64
      dim: 64
      dim: 3
      dim: 3
    }
  }
  blobs {
    shape {
      dim: 64
    }
  }
}
layer {
  name: "Swish: /model/model_0_act_28/Mul_smr"
  type: "Swish"
  bottom: "/model/model_0_act_28/Mul_smr:0"
  top: "/model/model_0_act_28/Mul_smr:0"
    scale_param {
    "InputShapes": "64x20x20"
    "OutputShape": "64x20x20"
    "Quantize[mn,mx]": [-4.0, 4.0]
    "QuantizeBits": 8
    "ConstInputs": "/model/model_12_m_0_cv2_conv/WeightsSymmetricQuantizer:0"
    "ConstInputs": "Variable.model.model_12_m_0_cv2_conv.layer.bias.uid31:0"
    "RuntimeMemory": "25.00KB"
    
  }

}
layer {
  name: "Concat: /model/Concat_11"
  type: "Concat"
  bottom: "/model/model_0_act_28/Mul_smr:0"
  bottom: "transform-31-/model/Split_4sts0:0"
  bottom: "transform-32-/model/Split_4sts1:0"
  top: "/model/Concat_11:0"
    scale_param {
    "InputShapes": "64x20x20, 64x20x20, 64x20x20"
    "OutputShape": "192x20x20"
    "Quantize[mn,mx]": [-8.0, 8.0]
    "QuantizeBits": 8
    
    "RuntimeMemory": "75.00KB"
    "ScheduleId": "272"

  }

}
layer {
  name: "Conv2D: /model/model_12_cv2_conv/layer/Conv"
  type: "Convolution"
  bottom: "/model/Concat_11:0"
  top: "/model/model_0_act_29/Mul_smr:0"
    scale_param {
    "InputShapes": "192x20x20, 128x192x1x1, 128"
    "OutputShape": "128x20x20"
    "Quantize[mn,mx]": [-8.0, 8.0]
    "QuantizeBits": 16
    "ConstInputs": "/model/model_12_cv2_conv/WeightsSymmetricQuantizer:0"
    "ConstInputs": "Variable.model.model_12_cv2_conv.layer.bias.uid32:0"
    "RuntimeMemory": "50.00KB"
    "ScheduleId": "273"

  }
  blobs {
    shape {
      dim: 128
      dim: 192
      dim: 1
      dim: 1
    }
  }
  blobs {
    shape {
      dim: 128
    }
  }
}
layer {
  name: "Swish: /model/model_0_act_29/Mul_smr"
  type: "Swish"
  bottom: "/model/model_0_act_29/Mul_smr:0"
  top: "/model/model_0_act_29/Mul_smr:0"
    scale_param {
    "InputShapes": "128x20x20"
    "OutputShape": "128x20x20"
    "Quantize[mn,mx]": [-4.0, 4.0]
    "QuantizeBits": 8
    "ConstInputs": "/model/model_12_cv2_conv/WeightsSymmetricQuantizer:0"
    "ConstInputs": "Variable.model.model_12_cv2_conv.layer.bias.uid32:0"
    "RuntimeMemory": "50.00KB"
    
  }

}
layer {
  name: "Resize: /model/model_13/Resize"
  type: "Resize"
  bottom: "/model/model_0_act_29/Mul_smr:0"
  top: "/model/model_13/Resize:0"
    scale_param {
    "InputShapes": "128x20x20"
    "OutputShape": "128x40x40"
    "Quantize[mn,mx]": [-4.0, 4.0]
    "QuantizeBits": 8
    "HasScratch": "true"
    
    "RuntimeMemory": "200.00KB"
    "ScheduleId": "274"

  }

}
layer {
  name: "Concat: /model/Concat_12"
  type: "Concat"
  bottom: "/model/model_0_act_12/Mul_smr:0"
  bottom: "/model/model_13/Resize:0"
  top: "/model/Concat_12:0"
    scale_param {
    "InputShapes": "128x40x40, 64x40x40"
    "OutputShape": "192x40x40"
    "Quantize[mn,mx]": [-4.0, 4.0]
    "QuantizeBits": 8
    
    "RuntimeMemory": "300.00KB"
    "ScheduleId": "275"

  }

}
layer {
  name: "Conv2D: /model/model_15_cv1_conv/layer/Conv"
  type: "Convolution"
  bottom: "/model/Concat_12:0"
  top: "/model/model_0_act_30/Mul_smr:0"
    scale_param {
    "InputShapes": "192x40x40, 64x192x1x1, 64"
    "OutputShape": "64x40x40"
    "Quantize[mn,mx]": [-8.0, 8.0]
    "QuantizeBits": 16
    "ConstInputs": "/model/model_15_cv1_conv/WeightsSymmetricQuantizer:0"
    "ConstInputs": "Variable.model.model_15_cv1_conv.layer.bias.uid33:0"
    "RuntimeMemory": "100.00KB"
    "ScheduleId": "276"

  }
  blobs {
    shape {
      dim: 64
      dim: 192
      dim: 1
      dim: 1
    }
  }
  blobs {
    shape {
      dim: 64
    }
  }
}
layer {
  name: "Swish: /model/model_0_act_30/Mul_smr"
  type: "Swish"
  bottom: "/model/model_0_act_30/Mul_smr:0"
  top: "/model/model_0_act_30/Mul_smr:0"
    scale_param {
    "InputShapes": "64x40x40"
    "OutputShape": "64x40x40"
    "Quantize[mn,mx]": [-4.0, 4.0]
    "QuantizeBits": 8
    "ConstInputs": "/model/model_15_cv1_conv/WeightsSymmetricQuantizer:0"
    "ConstInputs": "Variable.model.model_15_cv1_conv.layer.bias.uid33:0"
    "RuntimeMemory": "100.00KB"
    
  }

}
layer {
  name: "Transform: transform-29-(F)/model/model_15_cv1_conv/layer/Conv"
  type: "Transform"
  bottom: "/model/model_0_act_30/Mul_smr:0"
  top: "transform-29-(F)/model/model_15_cv1_conv/layer/Conv:0"
    scale_param {
    "InputShapes": "64x40x40"
    "OutputShape": "64x40x40"
    "Quantize[mn,mx]": [-4.0, 4.0]
    "QuantizeBits": 8
    
    "RuntimeMemory": "160.00KB"
    "ScheduleId": "277"

  }

}
layer {
  name: "Transform: transform-30-(F)/model/model_15_cv1_conv/layer/Conv"
  type: "Transform"
  bottom: "/model/model_0_act_30/Mul_smr:0"
  top: "transform-30-(F)/model/model_15_cv1_conv/layer/Conv:0"
    scale_param {
    "InputShapes": "64x40x40"
    "OutputShape": "64x40x40"
    "Quantize[mn,mx]": [-4.0, 4.0]
    "QuantizeBits": 8
    
    "RuntimeMemory": "160.00KB"
    "ScheduleId": "280"

  }

}
layer {
  name: "StrideSlice: /model/Split_5sts0"
  type: "StrideSlice"
  bottom: "transform-29-(F)/model/model_15_cv1_conv/layer/Conv:0"
  top: "/model/Split_5sts0:0"
    scale_param {
    "InputShapes": "64x40x40"
    "OutputShape": "32x40x40"
    "Quantize[mn,mx]": [-4.0, 4.0]
    "QuantizeBits": 8
    
    "RuntimeMemory": "80.00KB"
    "ScheduleId": "278"

  }

}
layer {
  name: "StrideSlice: /model/Split_5sts1"
  type: "StrideSlice"
  bottom: "transform-30-(F)/model/model_15_cv1_conv/layer/Conv:0"
  top: "/model/Split_5sts1:0"
    scale_param {
    "InputShapes": "64x40x40"
    "OutputShape": "32x40x40"
    "Quantize[mn,mx]": [-4.0, 4.0]
    "QuantizeBits": 8
    
    "RuntimeMemory": "80.00KB"
    "ScheduleId": "281"

  }

}
layer {
  name: "Transform: transform-26-/model/Split_5sts0"
  type: "Transform"
  bottom: "/model/Split_5sts0:0"
  top: "transform-26-/model/Split_5sts0:0"
    scale_param {
    "InputShapes": "32x40x40"
    "OutputShape": "32x40x40"
    "Quantize[mn,mx]": [-4.0, 4.0]
    "QuantizeBits": 8
    
    "RuntimeMemory": "50.00KB"
    "ScheduleId": "279"

  }

}
layer {
  name: "Transform: transform-27-/model/Split_5sts1"
  type: "Transform"
  bottom: "/model/Split_5sts1:0"
  top: "transform-27-/model/Split_5sts1:0"
    scale_param {
    "InputShapes": "32x40x40"
    "OutputShape": "32x40x40"
    "Quantize[mn,mx]": [-4.0, 4.0]
    "QuantizeBits": 8
    
    "RuntimeMemory": "50.00KB"
    "ScheduleId": "282"

  }

}
layer {
  name: "Transform: transform-28-/model/Split_5sts1"
  type: "Transform"
  bottom: "/model/Split_5sts1:0"
  top: "transform-28-/model/Split_5sts1:0"
    scale_param {
    "InputShapes": "32x40x40"
    "OutputShape": "32x40x40"
    "Quantize[mn,mx]": [-4.0, 4.0]
    "QuantizeBits": 8
    
    "RuntimeMemory": "50.00KB"
    "ScheduleId": "283"

  }

}
layer {
  name: "Conv2D: /model/model_15_m_0_cv1_conv/layer/Conv"
  type: "Convolution"
  bottom: "transform-28-/model/Split_5sts1:0"
  top: "/model/model_0_act_31/Mul_smr:0"
    scale_param {
    "InputShapes": "32x40x40, 32x32x3x3, 32"
    "OutputShape": "32x40x40"
    "Quantize[mn,mx]": [-8.0, 8.0]
    "QuantizeBits": 16
    "ConstInputs": "/model/model_15_m_0_cv1_conv/WeightsSymmetricQuantizer:0"
    "ConstInputs": "Variable.model.model_15_m_0_cv1_conv.layer.bias.uid34:0"
    "RuntimeMemory": "50.00KB"
    "ScheduleId": "284"

  }
  blobs {
    shape {
      dim: 32
      dim: 32
      dim: 3
      dim: 3
    }
  }
  blobs {
    shape {
      dim: 32
    }
  }
}
layer {
  name: "Swish: /model/model_0_act_31/Mul_smr"
  type: "Swish"
  bottom: "/model/model_0_act_31/Mul_smr:0"
  top: "/model/model_0_act_31/Mul_smr:0"
    scale_param {
    "InputShapes": "32x40x40"
    "OutputShape": "32x40x40"
    "Quantize[mn,mx]": [-4.0, 4.0]
    "QuantizeBits": 8
    "ConstInputs": "/model/model_15_m_0_cv1_conv/WeightsSymmetricQuantizer:0"
    "ConstInputs": "Variable.model.model_15_m_0_cv1_conv.layer.bias.uid34:0"
    "RuntimeMemory": "50.00KB"
    
  }

}
layer {
  name: "Conv2D: /model/model_15_m_0_cv2_conv/layer/Conv"
  type: "Convolution"
  bottom: "/model/model_0_act_31/Mul_smr:0"
  top: "/model/model_0_act_32/Mul_smr:0"
    scale_param {
    "InputShapes": "32x40x40, 32x32x3x3, 32"
    "OutputShape": "32x40x40"
    "Quantize[mn,mx]": [-8.0, 8.0]
    "QuantizeBits": 16
    "ConstInputs": "/model/model_15_m_0_cv2_conv/WeightsSymmetricQuantizer:0"
    "ConstInputs": "Variable.model.model_15_m_0_cv2_conv.layer.bias.uid35:0"
    "RuntimeMemory": "50.00KB"
    "ScheduleId": "285"

  }
  blobs {
    shape {
      dim: 32
      dim: 32
      dim: 3
      dim: 3
    }
  }
  blobs {
    shape {
      dim: 32
    }
  }
}
layer {
  name: "Swish: /model/model_0_act_32/Mul_smr"
  type: "Swish"
  bottom: "/model/model_0_act_32/Mul_smr:0"
  top: "/model/model_0_act_32/Mul_smr:0"
    scale_param {
    "InputShapes": "32x40x40"
    "OutputShape": "32x40x40"
    "Quantize[mn,mx]": [-8.0, 8.0]
    "QuantizeBits": 8
    "ConstInputs": "/model/model_15_m_0_cv2_conv/WeightsSymmetricQuantizer:0"
    "ConstInputs": "Variable.model.model_15_m_0_cv2_conv.layer.bias.uid35:0"
    "RuntimeMemory": "50.00KB"
    
  }

}
layer {
  name: "Concat: /model/Concat_13"
  type: "Concat"
  bottom: "/model/model_0_act_32/Mul_smr:0"
  bottom: "transform-26-/model/Split_5sts0:0"
  bottom: "transform-27-/model/Split_5sts1:0"
  top: "/model/Concat_13:0"
    scale_param {
    "InputShapes": "32x40x40, 32x40x40, 32x40x40"
    "OutputShape": "96x40x40"
    "Quantize[mn,mx]": [-8.0, 8.0]
    "QuantizeBits": 8
    
    "RuntimeMemory": "150.00KB"
    "ScheduleId": "286"

  }

}
layer {
  name: "Conv2D: /model/model_15_cv2_conv/layer/Conv"
  type: "Convolution"
  bottom: "/model/Concat_13:0"
  top: "/model/model_0_act_33/Mul_smr:0"
    scale_param {
    "InputShapes": "96x40x40, 64x96x1x1, 64"
    "OutputShape": "64x40x40"
    "Quantize[mn,mx]": [-8.0, 8.0]
    "QuantizeBits": 16
    "ConstInputs": "/model/model_15_cv2_conv/WeightsSymmetricQuantizer:0"
    "ConstInputs": "Variable.model.model_15_cv2_conv.layer.bias.uid36:0"
    "RuntimeMemory": "100.00KB"
    "ScheduleId": "287"

  }
  blobs {
    shape {
      dim: 64
      dim: 96
      dim: 1
      dim: 1
    }
  }
  blobs {
    shape {
      dim: 64
    }
  }
}
layer {
  name: "Swish: /model/model_0_act_33/Mul_smr"
  type: "Swish"
  bottom: "/model/model_0_act_33/Mul_smr:0"
  top: "/model/model_0_act_33/Mul_smr:0"
    scale_param {
    "InputShapes": "64x40x40"
    "OutputShape": "64x40x40"
    "Quantize[mn,mx]": [-8.0, 8.0]
    "QuantizeBits": 8
    "ConstInputs": "/model/model_15_cv2_conv/WeightsSymmetricQuantizer:0"
    "ConstInputs": "Variable.model.model_15_cv2_conv.layer.bias.uid36:0"
    "RuntimeMemory": "100.00KB"
    
  }

}
layer {
  name: "Conv2D: /model/model_22_cv3_0_0_conv/layer/Conv"
  type: "Convolution"
  bottom: "/model/model_0_act_33/Mul_smr:0"
  top: "/model/model_0_act_50/Mul_smr:0"
    scale_param {
    "InputShapes": "64x40x40, 64x64x3x3, 64"
    "OutputShape": "64x40x40"
    "Quantize[mn,mx]": [-8.0, 8.0]
    "QuantizeBits": 16
    "ConstInputs": "/model/model_22_cv3_0_0_conv/WeightsSymmetricQuantizer:0"
    "ConstInputs": "Variable.model.model_22_cv3_0_0_conv.layer.bias.uid39:0"
    "RuntimeMemory": "100.00KB"
    "ScheduleId": "290"

  }
  blobs {
    shape {
      dim: 64
      dim: 64
      dim: 3
      dim: 3
    }
  }
  blobs {
    shape {
      dim: 64
    }
  }
}
layer {
  name: "Swish: /model/model_0_act_50/Mul_smr"
  type: "Swish"
  bottom: "/model/model_0_act_50/Mul_smr:0"
  top: "/model/model_0_act_50/Mul_smr:0"
    scale_param {
    "InputShapes": "64x40x40"
    "OutputShape": "64x40x40"
    "Quantize[mn,mx]": [0, 8.0]
    "QuantizeBits": 8
    "ConstInputs": "/model/model_22_cv3_0_0_conv/WeightsSymmetricQuantizer:0"
    "ConstInputs": "Variable.model.model_22_cv3_0_0_conv.layer.bias.uid39:0"
    "RuntimeMemory": "100.00KB"
    
  }

}
layer {
  name: "Conv2D: /model/model_22_cv2_0_0_conv/layer/Conv"
  type: "Convolution"
  bottom: "/model/model_0_act_33/Mul_smr:0"
  top: "/model/model_0_act_44/Mul_smr:0"
    scale_param {
    "InputShapes": "64x40x40, 64x64x3x3, 64"
    "OutputShape": "64x40x40"
    "Quantize[mn,mx]": [-8.0, 8.0]
    "QuantizeBits": 16
    "ConstInputs": "/model/model_22_cv2_0_0_conv/WeightsSymmetricQuantizer:0"
    "ConstInputs": "Variable.model.model_22_cv2_0_0_conv.layer.bias.uid38:0"
    "RuntimeMemory": "100.00KB"
    "ScheduleId": "289"

  }
  blobs {
    shape {
      dim: 64
      dim: 64
      dim: 3
      dim: 3
    }
  }
  blobs {
    shape {
      dim: 64
    }
  }
}
layer {
  name: "Swish: /model/model_0_act_44/Mul_smr"
  type: "Swish"
  bottom: "/model/model_0_act_44/Mul_smr:0"
  top: "/model/model_0_act_44/Mul_smr:0"
    scale_param {
    "InputShapes": "64x40x40"
    "OutputShape": "64x40x40"
    "Quantize[mn,mx]": [0, 8.0]
    "QuantizeBits": 8
    "ConstInputs": "/model/model_22_cv2_0_0_conv/WeightsSymmetricQuantizer:0"
    "ConstInputs": "Variable.model.model_22_cv2_0_0_conv.layer.bias.uid38:0"
    "RuntimeMemory": "100.00KB"
    
  }

}
layer {
  name: "Conv2D: /model/model_16_conv/layer/Conv"
  type: "Convolution"
  bottom: "/model/model_0_act_33/Mul_smr:0"
  top: "/model/model_0_act_34/Mul_smr:0"
    scale_param {
    "InputShapes": "64x40x40, 64x64x3x3, 64"
    "OutputShape": "64x20x20"
    "Quantize[mn,mx]": [-8.0, 8.0]
    "QuantizeBits": 16
    "ConstInputs": "/model/model_16_conv/WeightsSymmetricQuantizer:0"
    "ConstInputs": "Variable.model.model_16_conv.layer.bias.uid37:0"
    "RuntimeMemory": "25.00KB"
    "ScheduleId": "288"

  }
  blobs {
    shape {
      dim: 64
      dim: 64
      dim: 3
      dim: 3
    }
  }
  blobs {
    shape {
      dim: 64
    }
  }
}
layer {
  name: "Swish: /model/model_0_act_34/Mul_smr"
  type: "Swish"
  bottom: "/model/model_0_act_34/Mul_smr:0"
  top: "/model/model_0_act_34/Mul_smr:0"
    scale_param {
    "InputShapes": "64x20x20"
    "OutputShape": "64x20x20"
    "Quantize[mn,mx]": [-8.0, 8.0]
    "QuantizeBits": 8
    "ConstInputs": "/model/model_16_conv/WeightsSymmetricQuantizer:0"
    "ConstInputs": "Variable.model.model_16_conv.layer.bias.uid37:0"
    "RuntimeMemory": "25.00KB"
    
  }

}
layer {
  name: "Pad: /model/Pad_6_to1d_0"
  type: "Pad"
  bottom: "/model/model_0_act_50/Mul_smr:0"
  top: "/model/Pad_6_to1d_0:0"
    scale_param {
    "InputShapes": "64x40x40"
    "OutputShape": "64x42x40"
    "Quantize[mn,mx]": [0, 8.0]
    "QuantizeBits": 8
    "HasScratch": "true"
    
    "RuntimeMemory": "105.00KB"
    "ScheduleId": "296"

  }

}
layer {
  name: "Pad: /model/Pad_5_to1d_0"
  type: "Pad"
  bottom: "/model/model_0_act_44/Mul_smr:0"
  top: "/model/Pad_5_to1d_0:0"
    scale_param {
    "InputShapes": "64x40x40"
    "OutputShape": "64x42x40"
    "Quantize[mn,mx]": [0, 8.0]
    "QuantizeBits": 8
    "HasScratch": "true"
    
    "RuntimeMemory": "105.00KB"
    "ScheduleId": "293"

  }

}
layer {
  name: "Concat: /model/Concat_14"
  type: "Concat"
  bottom: "/model/model_0_act_29/Mul_smr:0"
  bottom: "/model/model_0_act_34/Mul_smr:0"
  top: "/model/Concat_14:0"
    scale_param {
    "InputShapes": "64x20x20, 128x20x20"
    "OutputShape": "192x20x20"
    "Quantize[mn,mx]": [-8.0, 8.0]
    "QuantizeBits": 8
    
    "RuntimeMemory": "75.00KB"
    "ScheduleId": "291"

  }

}
layer {
  name: "Pad: /model/Pad_6_to1d_1"
  type: "Pad"
  bottom: "/model/Pad_6_to1d_0:0"
  top: "/model/Pad_6_to1d_1:0"
    scale_param {
    "InputShapes": "64x42x40"
    "OutputShape": "64x42x42"
    "Quantize[mn,mx]": [0, 8.0]
    "QuantizeBits": 8
    "HasScratch": "true"
    
    "RuntimeMemory": "110.25KB"
    "ScheduleId": "297"

  }

}
layer {
  name: "Pad: /model/Pad_5_to1d_1"
  type: "Pad"
  bottom: "/model/Pad_5_to1d_0:0"
  top: "/model/Pad_5_to1d_1:0"
    scale_param {
    "InputShapes": "64x42x40"
    "OutputShape": "64x42x42"
    "Quantize[mn,mx]": [0, 8.0]
    "QuantizeBits": 8
    "HasScratch": "true"
    
    "RuntimeMemory": "110.25KB"
    "ScheduleId": "294"

  }

}
layer {
  name: "Conv2D: /model/model_18_cv1_conv/layer/Conv"
  type: "Convolution"
  bottom: "/model/Concat_14:0"
  top: "/model/model_0_act_35/Mul_smr:0"
    scale_param {
    "InputShapes": "192x20x20, 128x192x1x1, 128"
    "OutputShape": "128x20x20"
    "Quantize[mn,mx]": [-16.0, 16.0]
    "QuantizeBits": 16
    "ConstInputs": "/model/model_18_cv1_conv/WeightsSymmetricQuantizer:0"
    "ConstInputs": "Variable.model.model_18_cv1_conv.layer.bias.uid40:0"
    "RuntimeMemory": "50.00KB"
    "ScheduleId": "292"

  }
  blobs {
    shape {
      dim: 128
      dim: 192
      dim: 1
      dim: 1
    }
  }
  blobs {
    shape {
      dim: 128
    }
  }
}
layer {
  name: "Swish: /model/model_0_act_35/Mul_smr"
  type: "Swish"
  bottom: "/model/model_0_act_35/Mul_smr:0"
  top: "/model/model_0_act_35/Mul_smr:0"
    scale_param {
    "InputShapes": "128x20x20"
    "OutputShape": "128x20x20"
    "Quantize[mn,mx]": [-16.0, 16.0]
    "QuantizeBits": 8
    "ConstInputs": "/model/model_18_cv1_conv/WeightsSymmetricQuantizer:0"
    "ConstInputs": "Variable.model.model_18_cv1_conv.layer.bias.uid40:0"
    "RuntimeMemory": "50.00KB"
    
  }

}
layer {
  name: "Conv2D: /model/model_22_cv3_0_1_conv/layer/Conv"
  type: "Convolution"
  bottom: "/model/Pad_6_to1d_1:0"
  top: "/model/model_0_act_51/Mul_smr:0"
    scale_param {
    "InputShapes": "64x42x42, 64x64x3x3, 64"
    "OutputShape": "64x40x40"
    "Quantize[mn,mx]": [-8.0, 8.0]
    "QuantizeBits": 16
    "ConstInputs": "/model/model_22_cv3_0_1_conv/WeightsSymmetricQuantizer:0"
    "ConstInputs": "Variable.model.model_22_cv3_0_1_conv.layer.bias.uid42:0"
    "RuntimeMemory": "100.00KB"
    "ScheduleId": "298"

  }
  blobs {
    shape {
      dim: 64
      dim: 64
      dim: 3
      dim: 3
    }
  }
  blobs {
    shape {
      dim: 64
    }
  }
}
layer {
  name: "Swish: /model/model_0_act_51/Mul_smr"
  type: "Swish"
  bottom: "/model/model_0_act_51/Mul_smr:0"
  top: "/model/model_0_act_51/Mul_smr:0"
    scale_param {
    "InputShapes": "64x40x40"
    "OutputShape": "64x40x40"
    "Quantize[mn,mx]": [0, 8.0]
    "QuantizeBits": 8
    "ConstInputs": "/model/model_22_cv3_0_1_conv/WeightsSymmetricQuantizer:0"
    "ConstInputs": "Variable.model.model_22_cv3_0_1_conv.layer.bias.uid42:0"
    "RuntimeMemory": "100.00KB"
    
  }

}
layer {
  name: "Conv2D: /model/model_22_cv2_0_1_conv/layer/Conv"
  type: "Convolution"
  bottom: "/model/Pad_5_to1d_1:0"
  top: "/model/model_0_act_45/Mul_smr:0"
    scale_param {
    "InputShapes": "64x42x42, 64x64x3x3, 64"
    "OutputShape": "64x40x40"
    "Quantize[mn,mx]": [-16.0, 16.0]
    "QuantizeBits": 16
    "ConstInputs": "/model/model_22_cv2_0_1_conv/WeightsSymmetricQuantizer:0"
    "ConstInputs": "Variable.model.model_22_cv2_0_1_conv.layer.bias.uid41:0"
    "RuntimeMemory": "100.00KB"
    "ScheduleId": "295"

  }
  blobs {
    shape {
      dim: 64
      dim: 64
      dim: 3
      dim: 3
    }
  }
  blobs {
    shape {
      dim: 64
    }
  }
}
layer {
  name: "Swish: /model/model_0_act_45/Mul_smr"
  type: "Swish"
  bottom: "/model/model_0_act_45/Mul_smr:0"
  top: "/model/model_0_act_45/Mul_smr:0"
    scale_param {
    "InputShapes": "64x40x40"
    "OutputShape": "64x40x40"
    "Quantize[mn,mx]": [0, 16.0]
    "QuantizeBits": 8
    "ConstInputs": "/model/model_22_cv2_0_1_conv/WeightsSymmetricQuantizer:0"
    "ConstInputs": "Variable.model.model_22_cv2_0_1_conv.layer.bias.uid41:0"
    "RuntimeMemory": "100.00KB"
    
  }

}
layer {
  name: "Transform: transform-24-(F)/model/model_18_cv1_conv/layer/Conv"
  type: "Transform"
  bottom: "/model/model_0_act_35/Mul_smr:0"
  top: "transform-24-(F)/model/model_18_cv1_conv/layer/Conv:0"
    scale_param {
    "InputShapes": "128x20x20"
    "OutputShape": "128x20x20"
    "Quantize[mn,mx]": [-16.0, 16.0]
    "QuantizeBits": 8
    
    "RuntimeMemory": "80.00KB"
    "ScheduleId": "304"

  }

}
layer {
  name: "Transform: transform-25-(F)/model/model_18_cv1_conv/layer/Conv"
  type: "Transform"
  bottom: "/model/model_0_act_35/Mul_smr:0"
  top: "transform-25-(F)/model/model_18_cv1_conv/layer/Conv:0"
    scale_param {
    "InputShapes": "128x20x20"
    "OutputShape": "128x20x20"
    "Quantize[mn,mx]": [-16.0, 16.0]
    "QuantizeBits": 8
    
    "RuntimeMemory": "80.00KB"
    "ScheduleId": "308"

  }

}
layer {
  name: "Conv2D: /model/model_22_cv3_0_2/layer/Conv"
  type: "Convolution"
  bottom: "/model/model_0_act_51/Mul_smr:0"
  top: "/model/model_22_cv3_0_2/layer/Conv:0"
    scale_param {
    "InputShapes": "64x40x40, 1x64x1x1, 1"
    "OutputShape": "1x40x40"
    "Quantize[mn,mx]": [-16.0, 16.0]
    "QuantizeBits": 8
    "ConstInputs": "/model/model_22_cv3_0_2/WeightsSymmetricQuantizer:0"
    "ConstInputs": "Variable.model.model_22_cv3_0_2.layer.bias.uid45:0"
    "RuntimeMemory": "2.50KB"
    "ScheduleId": "300"

  }
  blobs {
    shape {
      dim: 1
      dim: 64
      dim: 1
      dim: 1
    }
  }
  blobs {
    shape {
      dim: 1
    }
  }
}
layer {
  name: "Conv2D: /model/model_22_cv2_0_2/layer/Conv"
  type: "Convolution"
  bottom: "/model/model_0_act_45/Mul_smr:0"
  top: "/model/model_22_cv2_0_2/layer/Conv:0"
    scale_param {
    "InputShapes": "64x40x40, 64x64x1x1, 64"
    "OutputShape": "64x40x40"
    "Quantize[mn,mx]": [-16.0, 16.0]
    "QuantizeBits": 8
    "ConstInputs": "/model/model_22_cv2_0_2/WeightsSymmetricQuantizer:0"
    "ConstInputs": "Variable.model.model_22_cv2_0_2.layer.bias.uid44:0"
    "RuntimeMemory": "100.00KB"
    "ScheduleId": "299"

  }
  blobs {
    shape {
      dim: 64
      dim: 64
      dim: 1
      dim: 1
    }
  }
  blobs {
    shape {
      dim: 64
    }
  }
}
layer {
  name: "StrideSlice: /model/Split_6sts0"
  type: "StrideSlice"
  bottom: "transform-24-(F)/model/model_18_cv1_conv/layer/Conv:0"
  top: "/model/Split_6sts0:0"
    scale_param {
    "InputShapes": "128x20x20"
    "OutputShape": "64x20x20"
    "Quantize[mn,mx]": [-16.0, 16.0]
    "QuantizeBits": 8
    
    "RuntimeMemory": "40.00KB"
    "ScheduleId": "305"

  }

}
layer {
  name: "StrideSlice: /model/Split_6sts1"
  type: "StrideSlice"
  bottom: "transform-25-(F)/model/model_18_cv1_conv/layer/Conv:0"
  top: "/model/Split_6sts1:0"
    scale_param {
    "InputShapes": "128x20x20"
    "OutputShape": "64x20x20"
    "Quantize[mn,mx]": [-16.0, 16.0]
    "QuantizeBits": 8
    
    "RuntimeMemory": "40.00KB"
    "ScheduleId": "309"

  }

}
layer {
  name: "Reshape: /model/Reshape_15"
  type: "Reshape"
  bottom: "/model/model_22_cv3_0_2/layer/Conv:0"
  top: "/model/Reshape_15:0"
    scale_param {
    "InputShapes": "1x40x40"
    "OutputShape": "1x1600"
    "Quantize[mn,mx]": [-16.0, 16.0]
    "QuantizeBits": 8
    "HasScratch": "true"
    
    "RuntimeMemory": "1.56KB"
    "ScheduleId": "301"

  }

}
layer {
  name: "Transform: transform-15-/model/model_22_cv2_0_2/layer/Conv"
  type: "Transform"
  bottom: "/model/model_22_cv2_0_2/layer/Conv:0"
  top: "transform-15-/model/model_22_cv2_0_2/layer/Conv:0"
    scale_param {
    "InputShapes": "64x40x40"
    "OutputShape": "64x40x40"
    "Quantize[mn,mx]": [-16.0, 16.0]
    "QuantizeBits": 8
    
    "RuntimeMemory": "100.00KB"
    "ScheduleId": "302"

  }

}
layer {
  name: "Cast: Cast_to_/model/Concat_18_0"
  type: "Cast"
  bottom: "/model/Split_6sts0:0"
  top: "Cast_to_/model/Concat_18_0:0"
    scale_param {
    "InputShapes": "64x20x20"
    "OutputShape": "64x20x20"
    "Quantize[mn,mx]": [-8.0, 8.0]
    "QuantizeBits": 8
    
    "RuntimeMemory": "40.00KB"
    "ScheduleId": "306"

  }

}
layer {
  name: "Cast: Cast_to_/model/Concat_18_1"
  type: "Cast"
  bottom: "/model/Split_6sts1:0"
  top: "Cast_to_/model/Concat_18_1:0"
    scale_param {
    "InputShapes": "64x20x20"
    "OutputShape": "64x20x20"
    "Quantize[mn,mx]": [-8.0, 8.0]
    "QuantizeBits": 8
    
    "RuntimeMemory": "40.00KB"
    "ScheduleId": "310"

  }

}
layer {
  name: "Transform: transform-23-/model/Split_6sts1"
  type: "Transform"
  bottom: "/model/Split_6sts1:0"
  top: "transform-23-/model/Split_6sts1:0"
    scale_param {
    "InputShapes": "64x20x20"
    "OutputShape": "64x20x20"
    "Quantize[mn,mx]": [-16.0, 16.0]
    "QuantizeBits": 8
    
    "RuntimeMemory": "25.00KB"
    "ScheduleId": "312"

  }

}
layer {
  name: "Reshape: /model/Reshape_14"
  type: "Reshape"
  bottom: "transform-15-/model/model_22_cv2_0_2/layer/Conv:0"
  top: "/model/Reshape_14:0"
    scale_param {
    "InputShapes": "64x40x40"
    "OutputShape": "64x1600"
    "Quantize[mn,mx]": [-16.0, 16.0]
    "QuantizeBits": 8
    "HasScratch": "true"
    
    "RuntimeMemory": "100.00KB"
    "ScheduleId": "303"

  }

}
layer {
  name: "Transform: transform-21-Cast_to_/model/Concat_18_0"
  type: "Transform"
  bottom: "Cast_to_/model/Concat_18_0:0"
  top: "transform-21-Cast_to_/model/Concat_18_0:0"
    scale_param {
    "InputShapes": "64x20x20"
    "OutputShape": "64x20x20"
    "Quantize[mn,mx]": [-8.0, 8.0]
    "QuantizeBits": 8
    
    "RuntimeMemory": "25.00KB"
    "ScheduleId": "307"

  }

}
layer {
  name: "Transform: transform-22-Cast_to_/model/Concat_18_1"
  type: "Transform"
  bottom: "Cast_to_/model/Concat_18_1:0"
  top: "transform-22-Cast_to_/model/Concat_18_1:0"
    scale_param {
    "InputShapes": "64x20x20"
    "OutputShape": "64x20x20"
    "Quantize[mn,mx]": [-8.0, 8.0]
    "QuantizeBits": 8
    
    "RuntimeMemory": "25.00KB"
    "ScheduleId": "311"

  }

}
layer {
  name: "Conv2D: /model/model_18_m_0_cv1_conv/layer/Conv"
  type: "Convolution"
  bottom: "transform-23-/model/Split_6sts1:0"
  top: "/model/model_0_act_36/Mul_smr:0"
    scale_param {
    "InputShapes": "64x20x20, 64x64x3x3, 64"
    "OutputShape": "64x20x20"
    "Quantize[mn,mx]": [-8.0, 8.0]
    "QuantizeBits": 16
    "ConstInputs": "/model/model_18_m_0_cv1_conv/WeightsSymmetricQuantizer:0"
    "ConstInputs": "Variable.model.model_18_m_0_cv1_conv.layer.bias.uid43:0"
    "RuntimeMemory": "25.00KB"
    "ScheduleId": "313"

  }
  blobs {
    shape {
      dim: 64
      dim: 64
      dim: 3
      dim: 3
    }
  }
  blobs {
    shape {
      dim: 64
    }
  }
}
layer {
  name: "Swish: /model/model_0_act_36/Mul_smr"
  type: "Swish"
  bottom: "/model/model_0_act_36/Mul_smr:0"
  top: "/model/model_0_act_36/Mul_smr:0"
    scale_param {
    "InputShapes": "64x20x20"
    "OutputShape": "64x20x20"
    "Quantize[mn,mx]": [0, 8.0]
    "QuantizeBits": 8
    "ConstInputs": "/model/model_18_m_0_cv1_conv/WeightsSymmetricQuantizer:0"
    "ConstInputs": "Variable.model.model_18_m_0_cv1_conv.layer.bias.uid43:0"
    "RuntimeMemory": "25.00KB"
    
  }

}
layer {
  name: "Pad: /model/Pad_7_to1d_0"
  type: "Pad"
  bottom: "/model/model_0_act_36/Mul_smr:0"
  top: "/model/Pad_7_to1d_0:0"
    scale_param {
    "InputShapes": "64x20x20"
    "OutputShape": "64x22x20"
    "Quantize[mn,mx]": [0, 8.0]
    "QuantizeBits": 8
    "HasScratch": "true"
    
    "RuntimeMemory": "27.50KB"
    "ScheduleId": "314"

  }

}
layer {
  name: "Pad: /model/Pad_7_to1d_1"
  type: "Pad"
  bottom: "/model/Pad_7_to1d_0:0"
  top: "/model/Pad_7_to1d_1:0"
    scale_param {
    "InputShapes": "64x22x20"
    "OutputShape": "64x22x22"
    "Quantize[mn,mx]": [0, 8.0]
    "QuantizeBits": 8
    "HasScratch": "true"
    
    "RuntimeMemory": "30.25KB"
    "ScheduleId": "315"

  }

}
layer {
  name: "Conv2D: /model/model_18_m_0_cv2_conv/layer/Conv"
  type: "Convolution"
  bottom: "/model/Pad_7_to1d_1:0"
  top: "/model/model_0_act_37/Mul_smr:0"
    scale_param {
    "InputShapes": "64x22x22, 64x64x3x3, 64"
    "OutputShape": "64x20x20"
    "Quantize[mn,mx]": [-8.0, 8.0]
    "QuantizeBits": 16
    "ConstInputs": "/model/model_18_m_0_cv2_conv/WeightsSymmetricQuantizer:0"
    "ConstInputs": "Variable.model.model_18_m_0_cv2_conv.layer.bias.uid46:0"
    "RuntimeMemory": "25.00KB"
    "ScheduleId": "316"

  }
  blobs {
    shape {
      dim: 64
      dim: 64
      dim: 3
      dim: 3
    }
  }
  blobs {
    shape {
      dim: 64
    }
  }
}
layer {
  name: "Swish: /model/model_0_act_37/Mul_smr"
  type: "Swish"
  bottom: "/model/model_0_act_37/Mul_smr:0"
  top: "/model/model_0_act_37/Mul_smr:0"
    scale_param {
    "InputShapes": "64x20x20"
    "OutputShape": "64x20x20"
    "Quantize[mn,mx]": [-8.0, 8.0]
    "QuantizeBits": 8
    "ConstInputs": "/model/model_18_m_0_cv2_conv/WeightsSymmetricQuantizer:0"
    "ConstInputs": "Variable.model.model_18_m_0_cv2_conv.layer.bias.uid46:0"
    "RuntimeMemory": "25.00KB"
    
  }

}
layer {
  name: "Concat: /model/Concat_18"
  type: "Concat"
  bottom: "/model/model_0_act_37/Mul_smr:0"
  bottom: "transform-21-Cast_to_/model/Concat_18_0:0"
  bottom: "transform-22-Cast_to_/model/Concat_18_1:0"
  top: "/model/Concat_18:0"
    scale_param {
    "InputShapes": "64x20x20, 64x20x20, 64x20x20"
    "OutputShape": "192x20x20"
    "Quantize[mn,mx]": [-8.0, 8.0]
    "QuantizeBits": 8
    
    "RuntimeMemory": "75.00KB"
    "ScheduleId": "317"

  }

}
layer {
  name: "Conv2D: /model/model_18_cv2_conv/layer/Conv"
  type: "Convolution"
  bottom: "/model/Concat_18:0"
  top: "/model/model_0_act_38/Mul_smr:0"
    scale_param {
    "InputShapes": "192x20x20, 128x192x1x1, 128"
    "OutputShape": "128x20x20"
    "Quantize[mn,mx]": [-8.0, 8.0]
    "QuantizeBits": 16
    "ConstInputs": "/model/model_18_cv2_conv/WeightsSymmetricQuantizer:0"
    "ConstInputs": "Variable.model.model_18_cv2_conv.layer.bias.uid47:0"
    "RuntimeMemory": "50.00KB"
    "ScheduleId": "318"

  }
  blobs {
    shape {
      dim: 128
      dim: 192
      dim: 1
      dim: 1
    }
  }
  blobs {
    shape {
      dim: 128
    }
  }
}
layer {
  name: "Swish: /model/model_0_act_38/Mul_smr"
  type: "Swish"
  bottom: "/model/model_0_act_38/Mul_smr:0"
  top: "/model/model_0_act_38/Mul_smr:0"
    scale_param {
    "InputShapes": "128x20x20"
    "OutputShape": "128x20x20"
    "Quantize[mn,mx]": [-8.0, 8.0]
    "QuantizeBits": 8
    "ConstInputs": "/model/model_18_cv2_conv/WeightsSymmetricQuantizer:0"
    "ConstInputs": "Variable.model.model_18_cv2_conv.layer.bias.uid47:0"
    "RuntimeMemory": "50.00KB"
    
  }

}
layer {
  name: "Conv2D: /model/model_22_cv3_1_0_conv/layer/Conv"
  type: "Convolution"
  bottom: "/model/model_0_act_38/Mul_smr:0"
  top: "/model/model_0_act_52/Mul_smr:0"
    scale_param {
    "InputShapes": "128x20x20, 64x128x3x3, 64"
    "OutputShape": "64x20x20"
    "Quantize[mn,mx]": [-8.0, 8.0]
    "QuantizeBits": 16
    "ConstInputs": "/model/model_22_cv3_1_0_conv/WeightsSymmetricQuantizer:0"
    "ConstInputs": "Variable.model.model_22_cv3_1_0_conv.layer.bias.uid50:0"
    "RuntimeMemory": "25.00KB"
    "ScheduleId": "321"

  }
  blobs {
    shape {
      dim: 64
      dim: 128
      dim: 3
      dim: 3
    }
  }
  blobs {
    shape {
      dim: 64
    }
  }
}
layer {
  name: "Swish: /model/model_0_act_52/Mul_smr"
  type: "Swish"
  bottom: "/model/model_0_act_52/Mul_smr:0"
  top: "/model/model_0_act_52/Mul_smr:0"
    scale_param {
    "InputShapes": "64x20x20"
    "OutputShape": "64x20x20"
    "Quantize[mn,mx]": [0, 8.0]
    "QuantizeBits": 8
    "ConstInputs": "/model/model_22_cv3_1_0_conv/WeightsSymmetricQuantizer:0"
    "ConstInputs": "Variable.model.model_22_cv3_1_0_conv.layer.bias.uid50:0"
    "RuntimeMemory": "25.00KB"
    
  }

}
layer {
  name: "Conv2D: /model/model_22_cv2_1_0_conv/layer/Conv"
  type: "Convolution"
  bottom: "/model/model_0_act_38/Mul_smr:0"
  top: "/model/model_0_act_46/Mul_smr:0"
    scale_param {
    "InputShapes": "128x20x20, 64x128x3x3, 64"
    "OutputShape": "64x20x20"
    "Quantize[mn,mx]": [-16.0, 16.0]
    "QuantizeBits": 16
    "ConstInputs": "/model/model_22_cv2_1_0_conv/WeightsSymmetricQuantizer:0"
    "ConstInputs": "Variable.model.model_22_cv2_1_0_conv.layer.bias.uid49:0"
    "RuntimeMemory": "25.00KB"
    "ScheduleId": "320"

  }
  blobs {
    shape {
      dim: 64
      dim: 128
      dim: 3
      dim: 3
    }
  }
  blobs {
    shape {
      dim: 64
    }
  }
}
layer {
  name: "Swish: /model/model_0_act_46/Mul_smr"
  type: "Swish"
  bottom: "/model/model_0_act_46/Mul_smr:0"
  top: "/model/model_0_act_46/Mul_smr:0"
    scale_param {
    "InputShapes": "64x20x20"
    "OutputShape": "64x20x20"
    "Quantize[mn,mx]": [0, 16.0]
    "QuantizeBits": 8
    "ConstInputs": "/model/model_22_cv2_1_0_conv/WeightsSymmetricQuantizer:0"
    "ConstInputs": "Variable.model.model_22_cv2_1_0_conv.layer.bias.uid49:0"
    "RuntimeMemory": "25.00KB"
    
  }

}
layer {
  name: "Conv2D: /model/model_19_conv/layer/Conv"
  type: "Convolution"
  bottom: "/model/model_0_act_38/Mul_smr:0"
  top: "/model/model_0_act_39/Mul_smr:0"
    scale_param {
    "InputShapes": "128x20x20, 128x128x3x3, 128"
    "OutputShape": "128x10x10"
    "Quantize[mn,mx]": [-8.0, 8.0]
    "QuantizeBits": 16
    "ConstInputs": "/model/model_19_conv/WeightsSymmetricQuantizer:0"
    "ConstInputs": "Variable.model.model_19_conv.layer.bias.uid48:0"
    "RuntimeMemory": "12.50KB"
    "ScheduleId": "319"

  }
  blobs {
    shape {
      dim: 128
      dim: 128
      dim: 3
      dim: 3
    }
  }
  blobs {
    shape {
      dim: 128
    }
  }
}
layer {
  name: "Swish: /model/model_0_act_39/Mul_smr"
  type: "Swish"
  bottom: "/model/model_0_act_39/Mul_smr:0"
  top: "/model/model_0_act_39/Mul_smr:0"
    scale_param {
    "InputShapes": "128x10x10"
    "OutputShape": "128x10x10"
    "Quantize[mn,mx]": [-4.0, 4.0]
    "QuantizeBits": 8
    "ConstInputs": "/model/model_19_conv/WeightsSymmetricQuantizer:0"
    "ConstInputs": "Variable.model.model_19_conv.layer.bias.uid48:0"
    "RuntimeMemory": "12.50KB"
    
  }

}
layer {
  name: "Pad: /model/Pad_9_to1d_0"
  type: "Pad"
  bottom: "/model/model_0_act_52/Mul_smr:0"
  top: "/model/Pad_9_to1d_0:0"
    scale_param {
    "InputShapes": "64x20x20"
    "OutputShape": "64x22x20"
    "Quantize[mn,mx]": [0, 8.0]
    "QuantizeBits": 8
    "HasScratch": "true"
    
    "RuntimeMemory": "27.50KB"
    "ScheduleId": "327"

  }

}
layer {
  name: "Pad: /model/Pad_8_to1d_0"
  type: "Pad"
  bottom: "/model/model_0_act_46/Mul_smr:0"
  top: "/model/Pad_8_to1d_0:0"
    scale_param {
    "InputShapes": "64x20x20"
    "OutputShape": "64x22x20"
    "Quantize[mn,mx]": [0, 16.0]
    "QuantizeBits": 8
    "HasScratch": "true"
    
    "RuntimeMemory": "27.50KB"
    "ScheduleId": "324"

  }

}
layer {
  name: "Concat: /model/Concat_19"
  type: "Concat"
  bottom: "/model/model_0_act_25/Mul_smr:0"
  bottom: "/model/model_0_act_39/Mul_smr:0"
  top: "/model/Concat_19:0"
    scale_param {
    "InputShapes": "128x10x10, 256x10x10"
    "OutputShape": "384x10x10"
    "Quantize[mn,mx]": [-4.0, 4.0]
    "QuantizeBits": 8
    
    "RuntimeMemory": "37.50KB"
    "ScheduleId": "322"

  }

}
layer {
  name: "Pad: /model/Pad_9_to1d_1"
  type: "Pad"
  bottom: "/model/Pad_9_to1d_0:0"
  top: "/model/Pad_9_to1d_1:0"
    scale_param {
    "InputShapes": "64x22x20"
    "OutputShape": "64x22x22"
    "Quantize[mn,mx]": [0, 8.0]
    "QuantizeBits": 8
    "HasScratch": "true"
    
    "RuntimeMemory": "30.25KB"
    "ScheduleId": "328"

  }

}
layer {
  name: "Pad: /model/Pad_8_to1d_1"
  type: "Pad"
  bottom: "/model/Pad_8_to1d_0:0"
  top: "/model/Pad_8_to1d_1:0"
    scale_param {
    "InputShapes": "64x22x20"
    "OutputShape": "64x22x22"
    "Quantize[mn,mx]": [0, 16.0]
    "QuantizeBits": 8
    "HasScratch": "true"
    
    "RuntimeMemory": "30.25KB"
    "ScheduleId": "325"

  }

}
layer {
  name: "Conv2D: /model/model_21_cv1_conv/layer/Conv"
  type: "Convolution"
  bottom: "/model/Concat_19:0"
  top: "/model/model_0_act_40/Mul_smr:0"
    scale_param {
    "InputShapes": "384x10x10, 256x384x1x1, 256"
    "OutputShape": "256x10x10"
    "Quantize[mn,mx]": [-8.0, 8.0]
    "QuantizeBits": 16
    "ConstInputs": "/model/model_21_cv1_conv/WeightsSymmetricQuantizer:0"
    "ConstInputs": "Variable.model.model_21_cv1_conv.layer.bias.uid51:0"
    "RuntimeMemory": "25.00KB"
    "ScheduleId": "323"

  }
  blobs {
    shape {
      dim: 256
      dim: 384
      dim: 1
      dim: 1
    }
  }
  blobs {
    shape {
      dim: 256
    }
  }
}
layer {
  name: "Swish: /model/model_0_act_40/Mul_smr"
  type: "Swish"
  bottom: "/model/model_0_act_40/Mul_smr:0"
  top: "/model/model_0_act_40/Mul_smr:0"
    scale_param {
    "InputShapes": "256x10x10"
    "OutputShape": "256x10x10"
    "Quantize[mn,mx]": [-8.0, 8.0]
    "QuantizeBits": 8
    "ConstInputs": "/model/model_21_cv1_conv/WeightsSymmetricQuantizer:0"
    "ConstInputs": "Variable.model.model_21_cv1_conv.layer.bias.uid51:0"
    "RuntimeMemory": "25.00KB"
    
  }

}
layer {
  name: "Conv2D: /model/model_22_cv3_1_1_conv/layer/Conv"
  type: "Convolution"
  bottom: "/model/Pad_9_to1d_1:0"
  top: "/model/model_0_act_53/Mul_smr:0"
    scale_param {
    "InputShapes": "64x22x22, 64x64x3x3, 64"
    "OutputShape": "64x20x20"
    "Quantize[mn,mx]": [-8.0, 8.0]
    "QuantizeBits": 16
    "ConstInputs": "/model/model_22_cv3_1_1_conv/WeightsSymmetricQuantizer:0"
    "ConstInputs": "Variable.model.model_22_cv3_1_1_conv.layer.bias.uid53:0"
    "RuntimeMemory": "25.00KB"
    "ScheduleId": "329"

  }
  blobs {
    shape {
      dim: 64
      dim: 64
      dim: 3
      dim: 3
    }
  }
  blobs {
    shape {
      dim: 64
    }
  }
}
layer {
  name: "Swish: /model/model_0_act_53/Mul_smr"
  type: "Swish"
  bottom: "/model/model_0_act_53/Mul_smr:0"
  top: "/model/model_0_act_53/Mul_smr:0"
    scale_param {
    "InputShapes": "64x20x20"
    "OutputShape": "64x20x20"
    "Quantize[mn,mx]": [0, 8.0]
    "QuantizeBits": 8
    "ConstInputs": "/model/model_22_cv3_1_1_conv/WeightsSymmetricQuantizer:0"
    "ConstInputs": "Variable.model.model_22_cv3_1_1_conv.layer.bias.uid53:0"
    "RuntimeMemory": "25.00KB"
    
  }

}
layer {
  name: "Conv2D: /model/model_22_cv2_1_1_conv/layer/Conv"
  type: "Convolution"
  bottom: "/model/Pad_8_to1d_1:0"
  top: "/model/model_0_act_47/Mul_smr:0"
    scale_param {
    "InputShapes": "64x22x22, 64x64x3x3, 64"
    "OutputShape": "64x20x20"
    "Quantize[mn,mx]": [-16.0, 16.0]
    "QuantizeBits": 16
    "ConstInputs": "/model/model_22_cv2_1_1_conv/WeightsSymmetricQuantizer:0"
    "ConstInputs": "Variable.model.model_22_cv2_1_1_conv.layer.bias.uid52:0"
    "RuntimeMemory": "25.00KB"
    "ScheduleId": "326"

  }
  blobs {
    shape {
      dim: 64
      dim: 64
      dim: 3
      dim: 3
    }
  }
  blobs {
    shape {
      dim: 64
    }
  }
}
layer {
  name: "Swish: /model/model_0_act_47/Mul_smr"
  type: "Swish"
  bottom: "/model/model_0_act_47/Mul_smr:0"
  top: "/model/model_0_act_47/Mul_smr:0"
    scale_param {
    "InputShapes": "64x20x20"
    "OutputShape": "64x20x20"
    "Quantize[mn,mx]": [0, 16.0]
    "QuantizeBits": 8
    "ConstInputs": "/model/model_22_cv2_1_1_conv/WeightsSymmetricQuantizer:0"
    "ConstInputs": "Variable.model.model_22_cv2_1_1_conv.layer.bias.uid52:0"
    "RuntimeMemory": "25.00KB"
    
  }

}
layer {
  name: "Transform: transform-19-(F)/model/model_21_cv1_conv/layer/Conv"
  type: "Transform"
  bottom: "/model/model_0_act_40/Mul_smr:0"
  top: "transform-19-(F)/model/model_21_cv1_conv/layer/Conv:0"
    scale_param {
    "InputShapes": "256x10x10"
    "OutputShape": "256x10x10"
    "Quantize[mn,mx]": [-8.0, 8.0]
    "QuantizeBits": 8
    
    "RuntimeMemory": "80.00KB"
    "ScheduleId": "335"

  }

}
layer {
  name: "Transform: transform-20-(F)/model/model_21_cv1_conv/layer/Conv"
  type: "Transform"
  bottom: "/model/model_0_act_40/Mul_smr:0"
  top: "transform-20-(F)/model/model_21_cv1_conv/layer/Conv:0"
    scale_param {
    "InputShapes": "256x10x10"
    "OutputShape": "256x10x10"
    "Quantize[mn,mx]": [-8.0, 8.0]
    "QuantizeBits": 8
    
    "RuntimeMemory": "80.00KB"
    "ScheduleId": "338"

  }

}
layer {
  name: "Conv2D: /model/model_22_cv3_1_2/layer/Conv"
  type: "Convolution"
  bottom: "/model/model_0_act_53/Mul_smr:0"
  top: "/model/model_22_cv3_1_2/layer/Conv:0"
    scale_param {
    "InputShapes": "64x20x20, 1x64x1x1, 1"
    "OutputShape": "1x20x20"
    "Quantize[mn,mx]": [-16.0, 16.0]
    "QuantizeBits": 8
    "ConstInputs": "/model/model_22_cv3_1_2/WeightsSymmetricQuantizer:0"
    "ConstInputs": "Variable.model.model_22_cv3_1_2.layer.bias.uid56:0"
    "RuntimeMemory": "640B"
    "ScheduleId": "331"

  }
  blobs {
    shape {
      dim: 1
      dim: 64
      dim: 1
      dim: 1
    }
  }
  blobs {
    shape {
      dim: 1
    }
  }
}
layer {
  name: "Conv2D: /model/model_22_cv2_1_2/layer/Conv"
  type: "Convolution"
  bottom: "/model/model_0_act_47/Mul_smr:0"
  top: "/model/model_22_cv2_1_2/layer/Conv:0"
    scale_param {
    "InputShapes": "64x20x20, 64x64x1x1, 64"
    "OutputShape": "64x20x20"
    "Quantize[mn,mx]": [-16.0, 16.0]
    "QuantizeBits": 8
    "ConstInputs": "/model/model_22_cv2_1_2/WeightsSymmetricQuantizer:0"
    "ConstInputs": "Variable.model.model_22_cv2_1_2.layer.bias.uid55:0"
    "RuntimeMemory": "25.00KB"
    "ScheduleId": "330"

  }
  blobs {
    shape {
      dim: 64
      dim: 64
      dim: 1
      dim: 1
    }
  }
  blobs {
    shape {
      dim: 64
    }
  }
}
layer {
  name: "StrideSlice: /model/Split_7sts0"
  type: "StrideSlice"
  bottom: "transform-19-(F)/model/model_21_cv1_conv/layer/Conv:0"
  top: "/model/Split_7sts0:0"
    scale_param {
    "InputShapes": "256x10x10"
    "OutputShape": "128x10x10"
    "Quantize[mn,mx]": [-8.0, 8.0]
    "QuantizeBits": 8
    
    "RuntimeMemory": "40.00KB"
    "ScheduleId": "336"

  }

}
layer {
  name: "StrideSlice: /model/Split_7sts1"
  type: "StrideSlice"
  bottom: "transform-20-(F)/model/model_21_cv1_conv/layer/Conv:0"
  top: "/model/Split_7sts1:0"
    scale_param {
    "InputShapes": "256x10x10"
    "OutputShape": "128x10x10"
    "Quantize[mn,mx]": [-8.0, 8.0]
    "QuantizeBits": 8
    
    "RuntimeMemory": "40.00KB"
    "ScheduleId": "339"

  }

}
layer {
  name: "Reshape: /model/Reshape_23"
  type: "Reshape"
  bottom: "/model/model_22_cv3_1_2/layer/Conv:0"
  top: "/model/Reshape_23:0"
    scale_param {
    "InputShapes": "1x20x20"
    "OutputShape": "1x400"
    "Quantize[mn,mx]": [-16.0, 16.0]
    "QuantizeBits": 8
    "HasScratch": "true"
    
    "RuntimeMemory": "416B"
    "ScheduleId": "332"

  }

}
layer {
  name: "Transform: transform-14-/model/model_22_cv2_1_2/layer/Conv"
  type: "Transform"
  bottom: "/model/model_22_cv2_1_2/layer/Conv:0"
  top: "transform-14-/model/model_22_cv2_1_2/layer/Conv:0"
    scale_param {
    "InputShapes": "64x20x20"
    "OutputShape": "64x20x20"
    "Quantize[mn,mx]": [-16.0, 16.0]
    "QuantizeBits": 8
    
    "RuntimeMemory": "25.00KB"
    "ScheduleId": "333"

  }

}
layer {
  name: "Transform: transform-16-/model/Split_7sts0"
  type: "Transform"
  bottom: "/model/Split_7sts0:0"
  top: "transform-16-/model/Split_7sts0:0"
    scale_param {
    "InputShapes": "128x10x10"
    "OutputShape": "128x10x10"
    "Quantize[mn,mx]": [-8.0, 8.0]
    "QuantizeBits": 8
    
    "RuntimeMemory": "12.50KB"
    "ScheduleId": "337"

  }

}
layer {
  name: "Transform: transform-17-/model/Split_7sts1"
  type: "Transform"
  bottom: "/model/Split_7sts1:0"
  top: "transform-17-/model/Split_7sts1:0"
    scale_param {
    "InputShapes": "128x10x10"
    "OutputShape": "128x10x10"
    "Quantize[mn,mx]": [-8.0, 8.0]
    "QuantizeBits": 8
    
    "RuntimeMemory": "12.50KB"
    "ScheduleId": "340"

  }

}
layer {
  name: "Transform: transform-18-/model/Split_7sts1"
  type: "Transform"
  bottom: "/model/Split_7sts1:0"
  top: "transform-18-/model/Split_7sts1:0"
    scale_param {
    "InputShapes": "128x10x10"
    "OutputShape": "128x10x10"
    "Quantize[mn,mx]": [-8.0, 8.0]
    "QuantizeBits": 8
    
    "RuntimeMemory": "12.50KB"
    "ScheduleId": "341"

  }

}
layer {
  name: "Reshape: /model/Reshape_22"
  type: "Reshape"
  bottom: "transform-14-/model/model_22_cv2_1_2/layer/Conv:0"
  top: "/model/Reshape_22:0"
    scale_param {
    "InputShapes": "64x20x20"
    "OutputShape": "64x400"
    "Quantize[mn,mx]": [-16.0, 16.0]
    "QuantizeBits": 8
    "HasScratch": "true"
    
    "RuntimeMemory": "26.00KB"
    "ScheduleId": "334"

  }

}
layer {
  name: "Conv2D: /model/model_21_m_0_cv1_conv/layer/Conv"
  type: "Convolution"
  bottom: "transform-18-/model/Split_7sts1:0"
  top: "/model/model_0_act_41/Mul_smr:0"
    scale_param {
    "InputShapes": "128x10x10, 128x128x3x3, 128"
    "OutputShape": "128x10x10"
    "Quantize[mn,mx]": [-8.0, 8.0]
    "QuantizeBits": 16
    "ConstInputs": "/model/model_21_m_0_cv1_conv/WeightsSymmetricQuantizer:0"
    "ConstInputs": "Variable.model.model_21_m_0_cv1_conv.layer.bias.uid54:0"
    "RuntimeMemory": "12.50KB"
    "ScheduleId": "342"

  }
  blobs {
    shape {
      dim: 128
      dim: 128
      dim: 3
      dim: 3
    }
  }
  blobs {
    shape {
      dim: 128
    }
  }
}
layer {
  name: "Swish: /model/model_0_act_41/Mul_smr"
  type: "Swish"
  bottom: "/model/model_0_act_41/Mul_smr:0"
  top: "/model/model_0_act_41/Mul_smr:0"
    scale_param {
    "InputShapes": "128x10x10"
    "OutputShape": "128x10x10"
    "Quantize[mn,mx]": [-4.0, 4.0]
    "QuantizeBits": 8
    "ConstInputs": "/model/model_21_m_0_cv1_conv/WeightsSymmetricQuantizer:0"
    "ConstInputs": "Variable.model.model_21_m_0_cv1_conv.layer.bias.uid54:0"
    "RuntimeMemory": "12.50KB"
    
  }

}
layer {
  name: "Conv2D: /model/model_21_m_0_cv2_conv/layer/Conv"
  type: "Convolution"
  bottom: "/model/model_0_act_41/Mul_smr:0"
  top: "/model/model_0_act_42/Mul_smr:0"
    scale_param {
    "InputShapes": "128x10x10, 128x128x3x3, 128"
    "OutputShape": "128x10x10"
    "Quantize[mn,mx]": [-8.0, 8.0]
    "QuantizeBits": 16
    "ConstInputs": "/model/model_21_m_0_cv2_conv/WeightsSymmetricQuantizer:0"
    "ConstInputs": "Variable.model.model_21_m_0_cv2_conv.layer.bias.uid57:0"
    "RuntimeMemory": "12.50KB"
    "ScheduleId": "343"

  }
  blobs {
    shape {
      dim: 128
      dim: 128
      dim: 3
      dim: 3
    }
  }
  blobs {
    shape {
      dim: 128
    }
  }
}
layer {
  name: "Swish: /model/model_0_act_42/Mul_smr"
  type: "Swish"
  bottom: "/model/model_0_act_42/Mul_smr:0"
  top: "/model/model_0_act_42/Mul_smr:0"
    scale_param {
    "InputShapes": "128x10x10"
    "OutputShape": "128x10x10"
    "Quantize[mn,mx]": [-8.0, 8.0]
    "QuantizeBits": 8
    "ConstInputs": "/model/model_21_m_0_cv2_conv/WeightsSymmetricQuantizer:0"
    "ConstInputs": "Variable.model.model_21_m_0_cv2_conv.layer.bias.uid57:0"
    "RuntimeMemory": "12.50KB"
    
  }

}
layer {
  name: "Concat: /model/Concat_22"
  type: "Concat"
  bottom: "/model/model_0_act_42/Mul_smr:0"
  bottom: "transform-16-/model/Split_7sts0:0"
  bottom: "transform-17-/model/Split_7sts1:0"
  top: "/model/Concat_22:0"
    scale_param {
    "InputShapes": "128x10x10, 128x10x10, 128x10x10"
    "OutputShape": "384x10x10"
    "Quantize[mn,mx]": [-8.0, 8.0]
    "QuantizeBits": 8
    
    "RuntimeMemory": "37.50KB"
    "ScheduleId": "344"

  }

}
layer {
  name: "Conv2D: /model/model_21_cv2_conv/layer/Conv"
  type: "Convolution"
  bottom: "/model/Concat_22:0"
  top: "/model/model_0_act_43/Mul_smr:0"
    scale_param {
    "InputShapes": "384x10x10, 256x384x1x1, 256"
    "OutputShape": "256x10x10"
    "Quantize[mn,mx]": [-8.0, 8.0]
    "QuantizeBits": 16
    "ConstInputs": "/model/model_21_cv2_conv/WeightsSymmetricQuantizer:0"
    "ConstInputs": "Variable.model.model_21_cv2_conv.layer.bias.uid58:0"
    "RuntimeMemory": "25.00KB"
    "ScheduleId": "345"

  }
  blobs {
    shape {
      dim: 256
      dim: 384
      dim: 1
      dim: 1
    }
  }
  blobs {
    shape {
      dim: 256
    }
  }
}
layer {
  name: "Swish: /model/model_0_act_43/Mul_smr"
  type: "Swish"
  bottom: "/model/model_0_act_43/Mul_smr:0"
  top: "/model/model_0_act_43/Mul_smr:0"
    scale_param {
    "InputShapes": "256x10x10"
    "OutputShape": "256x10x10"
    "Quantize[mn,mx]": [-4.0, 4.0]
    "QuantizeBits": 8
    "ConstInputs": "/model/model_21_cv2_conv/WeightsSymmetricQuantizer:0"
    "ConstInputs": "Variable.model.model_21_cv2_conv.layer.bias.uid58:0"
    "RuntimeMemory": "25.00KB"
    
  }

}
layer {
  name: "Conv2D: /model/model_22_cv3_2_0_conv/layer/Conv"
  type: "Convolution"
  bottom: "/model/model_0_act_43/Mul_smr:0"
  top: "/model/model_0_act_54/Mul_smr:0"
    scale_param {
    "InputShapes": "256x10x10, 64x256x3x3, 64"
    "OutputShape": "64x10x10"
    "Quantize[mn,mx]": [-8.0, 8.0]
    "QuantizeBits": 16
    "ConstInputs": "/model/model_22_cv3_2_0_conv/WeightsSymmetricQuantizer:0"
    "ConstInputs": "Variable.model.model_22_cv3_2_0_conv.layer.bias.uid60:0"
    "RuntimeMemory": "6.25KB"
    "ScheduleId": "347"

  }
  blobs {
    shape {
      dim: 64
      dim: 256
      dim: 3
      dim: 3
    }
  }
  blobs {
    shape {
      dim: 64
    }
  }
}
layer {
  name: "Swish: /model/model_0_act_54/Mul_smr"
  type: "Swish"
  bottom: "/model/model_0_act_54/Mul_smr:0"
  top: "/model/model_0_act_54/Mul_smr:0"
    scale_param {
    "InputShapes": "64x10x10"
    "OutputShape": "64x10x10"
    "Quantize[mn,mx]": [-4.0, 4.0]
    "QuantizeBits": 8
    "ConstInputs": "/model/model_22_cv3_2_0_conv/WeightsSymmetricQuantizer:0"
    "ConstInputs": "Variable.model.model_22_cv3_2_0_conv.layer.bias.uid60:0"
    "RuntimeMemory": "6.25KB"
    
  }

}
layer {
  name: "Conv2D: /model/model_22_cv2_2_0_conv/layer/Conv"
  type: "Convolution"
  bottom: "/model/model_0_act_43/Mul_smr:0"
  top: "/model/model_0_act_48/Mul_smr:0"
    scale_param {
    "InputShapes": "256x10x10, 64x256x3x3, 64"
    "OutputShape": "64x10x10"
    "Quantize[mn,mx]": [-8.0, 8.0]
    "QuantizeBits": 16
    "ConstInputs": "/model/model_22_cv2_2_0_conv/WeightsSymmetricQuantizer:0"
    "ConstInputs": "Variable.model.model_22_cv2_2_0_conv.layer.bias.uid59:0"
    "RuntimeMemory": "6.25KB"
    "ScheduleId": "346"

  }
  blobs {
    shape {
      dim: 64
      dim: 256
      dim: 3
      dim: 3
    }
  }
  blobs {
    shape {
      dim: 64
    }
  }
}
layer {
  name: "Swish: /model/model_0_act_48/Mul_smr"
  type: "Swish"
  bottom: "/model/model_0_act_48/Mul_smr:0"
  top: "/model/model_0_act_48/Mul_smr:0"
    scale_param {
    "InputShapes": "64x10x10"
    "OutputShape": "64x10x10"
    "Quantize[mn,mx]": [0, 8.0]
    "QuantizeBits": 8
    "ConstInputs": "/model/model_22_cv2_2_0_conv/WeightsSymmetricQuantizer:0"
    "ConstInputs": "Variable.model.model_22_cv2_2_0_conv.layer.bias.uid59:0"
    "RuntimeMemory": "6.25KB"
    
  }

}
layer {
  name: "Conv2D: /model/model_22_cv3_2_1_conv/layer/Conv"
  type: "Convolution"
  bottom: "/model/model_0_act_54/Mul_smr:0"
  top: "/model/model_0_act_55/Mul_smr:0"
    scale_param {
    "InputShapes": "64x10x10, 64x64x3x3, 64"
    "OutputShape": "64x10x10"
    "Quantize[mn,mx]": [-8.0, 8.0]
    "QuantizeBits": 16
    "ConstInputs": "/model/model_22_cv3_2_1_conv/WeightsSymmetricQuantizer:0"
    "ConstInputs": "Variable.model.model_22_cv3_2_1_conv.layer.bias.uid61:0"
    "RuntimeMemory": "6.25KB"
    "ScheduleId": "348"

  }
  blobs {
    shape {
      dim: 64
      dim: 64
      dim: 3
      dim: 3
    }
  }
  blobs {
    shape {
      dim: 64
    }
  }
}
layer {
  name: "Swish: /model/model_0_act_55/Mul_smr"
  type: "Swish"
  bottom: "/model/model_0_act_55/Mul_smr:0"
  top: "/model/model_0_act_55/Mul_smr:0"
    scale_param {
    "InputShapes": "64x10x10"
    "OutputShape": "64x10x10"
    "Quantize[mn,mx]": [-4.0, 4.0]
    "QuantizeBits": 8
    "ConstInputs": "/model/model_22_cv3_2_1_conv/WeightsSymmetricQuantizer:0"
    "ConstInputs": "Variable.model.model_22_cv3_2_1_conv.layer.bias.uid61:0"
    "RuntimeMemory": "6.25KB"
    
  }

}
layer {
  name: "Pad: /model/Pad_10_to1d_0"
  type: "Pad"
  bottom: "/model/model_0_act_48/Mul_smr:0"
  top: "/model/Pad_10_to1d_0:0"
    scale_param {
    "InputShapes": "64x10x10"
    "OutputShape": "64x12x10"
    "Quantize[mn,mx]": [0, 8.0]
    "QuantizeBits": 8
    "HasScratch": "true"
    
    "RuntimeMemory": "7.50KB"
    "ScheduleId": "349"

  }

}
layer {
  name: "Conv2D: /model/model_22_cv3_2_2/layer/Conv"
  type: "Convolution"
  bottom: "/model/model_0_act_55/Mul_smr:0"
  top: "/model/model_22_cv3_2_2/layer/Conv:0"
    scale_param {
    "InputShapes": "64x10x10, 1x64x1x1, 1"
    "OutputShape": "1x10x10"
    "Quantize[mn,mx]": [-16.0, 16.0]
    "QuantizeBits": 8
    "ConstInputs": "/model/model_22_cv3_2_2/WeightsSymmetricQuantizer:0"
    "ConstInputs": "Variable.model.model_22_cv3_2_2.layer.bias.uid63:0"
    "RuntimeMemory": "320B"
    "ScheduleId": "353"

  }
  blobs {
    shape {
      dim: 1
      dim: 64
      dim: 1
      dim: 1
    }
  }
  blobs {
    shape {
      dim: 1
    }
  }
}
layer {
  name: "Pad: /model/Pad_10_to1d_1"
  type: "Pad"
  bottom: "/model/Pad_10_to1d_0:0"
  top: "/model/Pad_10_to1d_1:0"
    scale_param {
    "InputShapes": "64x12x10"
    "OutputShape": "64x12x12"
    "Quantize[mn,mx]": [0, 8.0]
    "QuantizeBits": 8
    "HasScratch": "true"
    
    "RuntimeMemory": "9.00KB"
    "ScheduleId": "350"

  }

}
layer {
  name: "Reshape: /model/Reshape_26"
  type: "Reshape"
  bottom: "/model/model_22_cv3_2_2/layer/Conv:0"
  top: "/model/Reshape_26:0"
    scale_param {
    "InputShapes": "1x10x10"
    "OutputShape": "1x100"
    "Quantize[mn,mx]": [-16.0, 16.0]
    "QuantizeBits": 8
    "HasScratch": "true"
    
    "RuntimeMemory": "128B"
    "ScheduleId": "354"

  }

}
layer {
  name: "Conv2D: /model/model_22_cv2_2_1_conv/layer/Conv"
  type: "Convolution"
  bottom: "/model/Pad_10_to1d_1:0"
  top: "/model/model_0_act_49/Mul_smr:0"
    scale_param {
    "InputShapes": "64x12x12, 64x64x3x3, 64"
    "OutputShape": "64x10x10"
    "Quantize[mn,mx]": [-16.0, 16.0]
    "QuantizeBits": 16
    "ConstInputs": "/model/model_22_cv2_2_1_conv/WeightsSymmetricQuantizer:0"
    "ConstInputs": "Variable.model.model_22_cv2_2_1_conv.layer.bias.uid62:0"
    "RuntimeMemory": "6.25KB"
    "ScheduleId": "351"

  }
  blobs {
    shape {
      dim: 64
      dim: 64
      dim: 3
      dim: 3
    }
  }
  blobs {
    shape {
      dim: 64
    }
  }
}
layer {
  name: "Swish: /model/model_0_act_49/Mul_smr"
  type: "Swish"
  bottom: "/model/model_0_act_49/Mul_smr:0"
  top: "/model/model_0_act_49/Mul_smr:0"
    scale_param {
    "InputShapes": "64x10x10"
    "OutputShape": "64x10x10"
    "Quantize[mn,mx]": [0, 16.0]
    "QuantizeBits": 8
    "ConstInputs": "/model/model_22_cv2_2_1_conv/WeightsSymmetricQuantizer:0"
    "ConstInputs": "Variable.model.model_22_cv2_2_1_conv.layer.bias.uid62:0"
    "RuntimeMemory": "6.25KB"
    
  }

}
layer {
  name: "Concat: /model/Concat_24"
  type: "Concat"
  bottom: "/model/Reshape_15:0"
  bottom: "/model/Reshape_23:0"
  bottom: "/model/Reshape_26:0"
  top: "/model/Concat_24:0"
    scale_param {
    "InputShapes": "1x1600, 1x400, 1x100"
    "OutputShape": "1x2100"
    "Quantize[mn,mx]": [-16.0, 16.0]
    "QuantizeBits": 8
    
    "RuntimeMemory": "2.06KB"
    "ScheduleId": "355"

  }

}
layer {
  name: "Conv2D: /model/model_22_cv2_2_2/layer/Conv"
  type: "Convolution"
  bottom: "/model/model_0_act_49/Mul_smr:0"
  top: "/model/model_22_cv2_2_2/layer/Conv:0"
    scale_param {
    "InputShapes": "64x10x10, 64x64x1x1, 64"
    "OutputShape": "64x10x10"
    "Quantize[mn,mx]": [-8.0, 8.0]
    "QuantizeBits": 8
    "ConstInputs": "/model/model_22_cv2_2_2/WeightsSymmetricQuantizer:0"
    "ConstInputs": "Variable.model.model_22_cv2_2_2.layer.bias.uid64:0"
    "RuntimeMemory": "6.25KB"
    "ScheduleId": "352"

  }
  blobs {
    shape {
      dim: 64
      dim: 64
      dim: 1
      dim: 1
    }
  }
  blobs {
    shape {
      dim: 64
    }
  }
}
layer {
  name: "Sigmoid: /model/Sigmoid"
  type: "Sigmoid"
  bottom: "/model/Concat_24:0"
  top: "/model/Sigmoid:0"
    scale_param {
    "InputShapes": "1x2100"
    "OutputShape": "1x2100"
    "Quantize[mn,mx]": [0, 1.0]
    "QuantizeBits": 8
    
    "RuntimeMemory": "2.06KB"
    "ScheduleId": "356"

  }

}
layer {
  name: "Transform: transform-13-/model/model_22_cv2_2_2/layer/Conv"
  type: "Transform"
  bottom: "/model/model_22_cv2_2_2/layer/Conv:0"
  top: "transform-13-/model/model_22_cv2_2_2/layer/Conv:0"
    scale_param {
    "InputShapes": "64x10x10"
    "OutputShape": "64x10x10"
    "Quantize[mn,mx]": [-8.0, 8.0]
    "QuantizeBits": 8
    
    "RuntimeMemory": "6.25KB"
    "ScheduleId": "358"

  }

}
layer {
  name: "Transpose: /model/Transpose_11"
  type: "Transpose"
  bottom: "/model/Sigmoid:0"
  top: "/model/Transpose_11:0"
    scale_param {
    "InputShapes": "1x2100"
    "OutputShape": "2100x1"
    "Quantize[mn,mx]": [0, 1.0]
    "QuantizeBits": 8
    
    "RuntimeMemory": "2.06KB"
    "ScheduleId": "357"

  }

}
layer {
  name: "Reshape: /model/Reshape_27"
  type: "Reshape"
  bottom: "transform-13-/model/model_22_cv2_2_2/layer/Conv:0"
  top: "/model/Reshape_27:0"
    scale_param {
    "InputShapes": "64x10x10"
    "OutputShape": "64x100"
    "Quantize[mn,mx]": [-8.0, 8.0]
    "QuantizeBits": 8
    "HasScratch": "true"
    
    "RuntimeMemory": "8.00KB"
    "ScheduleId": "359"

  }

}
layer {
  name: "Concat: /model/Concat_25"
  type: "Concat"
  bottom: "/model/Reshape_14:0"
  bottom: "/model/Reshape_22:0"
  bottom: "/model/Reshape_27:0"
  top: "/model/Concat_25:0"
    scale_param {
    "InputShapes": "64x1600, 64x400, 64x100"
    "OutputShape": "64x2100"
    "Quantize[mn,mx]": [-16.0, 16.0]
    "QuantizeBits": 8
    
    "RuntimeMemory": "131.25KB"
    "ScheduleId": "360"

  }

}
layer {
  name: "Transform: transform-12-/model/Concat_25"
  type: "Transform"
  bottom: "/model/Concat_25:0"
  top: "transform-12-/model/Concat_25:0"
    scale_param {
    "InputShapes": "64x2100"
    "OutputShape": "64x2100"
    "Quantize[mn,mx]": [-16.0, 16.0]
    "QuantizeBits": 8
    
    "RuntimeMemory": "132.00KB"
    "ScheduleId": "361"

  }

}
layer {
  name: "Reshape: /model/Reshape_28"
  type: "Reshape"
  bottom: "transform-12-/model/Concat_25:0"
  top: "/model/Reshape_28:0"
    scale_param {
    "InputShapes": "64x2100"
    "OutputShape": "4x16x2100"
    "Quantize[mn,mx]": [-16.0, 16.0]
    "QuantizeBits": 8
    "HasScratch": "true"
    
    "RuntimeMemory": "132.00KB"
    "ScheduleId": "362"

  }

}
layer {
  name: "Transform: transform-11-/model/Reshape_28"
  type: "Transform"
  bottom: "/model/Reshape_28:0"
  top: "transform-11-/model/Reshape_28:0"
    scale_param {
    "InputShapes": "4x16x2100"
    "OutputShape": "4x16x2100"
    "Quantize[mn,mx]": [-16.0, 16.0]
    "QuantizeBits": 8
    
    "RuntimeMemory": "132.00KB"
    "ScheduleId": "363"

  }

}
layer {
  name: "Transpose: /model/Transpose_12"
  type: "Transpose"
  bottom: "transform-11-/model/Reshape_28:0"
  top: "/model/Transpose_12:0"
    scale_param {
    "InputShapes": "4x16x2100"
    "OutputShape": "16x4x2100"
    "Quantize[mn,mx]": [-16.0, 16.0]
    "QuantizeBits": 8
    
    "RuntimeMemory": "132.00KB"
    "ScheduleId": "364"

  }

}
layer {
  name: "Transform: transform-10-/model/Transpose_12"
  type: "Transform"
  bottom: "/model/Transpose_12:0"
  top: "transform-10-/model/Transpose_12:0"
    scale_param {
    "InputShapes": "16x4x2100"
    "OutputShape": "16x4x2100"
    "Quantize[mn,mx]": [-16.0, 16.0]
    "QuantizeBits": 8
    
    "RuntimeMemory": "132.00KB"
    "ScheduleId": "365"

  }

}
layer {
  name: "Transpose: /model/Softmax_saitr"
  type: "Transpose"
  bottom: "transform-10-/model/Transpose_12:0"
  top: "/model/Softmax_saitr:0"
    scale_param {
    "InputShapes": "16x4x2100"
    "OutputShape": "2100x4x16"
    "Quantize[mn,mx]": [-16.0, 16.0]
    "QuantizeBits": 8
    
    "RuntimeMemory": "132.00KB"
    "ScheduleId": "366"

  }

}
layer {
  name: "Softmax: /model/Softmax_sa"
  type: "Softmax"
  bottom: "/model/Softmax_saitr:0"
  top: "/model/Softmax_sa:0"
    scale_param {
    "InputShapes": "2100x4x16"
    "OutputShape": "2100x4x16"
    "Quantize[mn,mx]": [0, 1.0]
    "QuantizeBits": 8
    
    "RuntimeMemory": "132.00KB"
    "ScheduleId": "367"

  }

}
layer {
  name: "Transform: transform-9-/model/Softmax_sa"
  type: "Transform"
  bottom: "/model/Softmax_sa:0"
  top: "transform-9-/model/Softmax_sa:0"
    scale_param {
    "InputShapes": "2100x4x16"
    "OutputShape": "2100x4x16"
    "Quantize[mn,mx]": [0, 1.0]
    "QuantizeBits": 8
    
    "RuntimeMemory": "132.00KB"
    "ScheduleId": "368"

  }

}
layer {
  name: "Transpose: /model/Softmax_saotr"
  type: "Transpose"
  bottom: "transform-9-/model/Softmax_sa:0"
  top: "/model/Softmax_saotr:0"
    scale_param {
    "InputShapes": "2100x4x16"
    "OutputShape": "16x4x2100"
    "Quantize[mn,mx]": [0, 1.0]
    "QuantizeBits": 8
    
    "RuntimeMemory": "132.00KB"
    "ScheduleId": "369"

  }

}
layer {
  name: "Transform: transform-8-/model/Softmax_saotr"
  type: "Transform"
  bottom: "/model/Softmax_saotr:0"
  top: "transform-8-/model/Softmax_saotr:0"
    scale_param {
    "InputShapes": "16x4x2100"
    "OutputShape": "16x4x2100"
    "Quantize[mn,mx]": [0, 1.0]
    "QuantizeBits": 8
    
    "RuntimeMemory": "132.00KB"
    "ScheduleId": "370"

  }

}
layer {
  name: "Conv2D: /model/model_22_dfl_conv/layer/Conv"
  type: "Convolution"
  bottom: "transform-8-/model/Softmax_saotr:0"
  top: "/model/model_22_dfl_conv/layer/Conv:0"
    scale_param {
    "InputShapes": "16x4x2100, 1x16x1x1, 1"
    "OutputShape": "1x4x2100"
    "Quantize[mn,mx]": [0, 16.0]
    "QuantizeBits": 8
    "ConstInputs": "/model/model_22_dfl_conv/WeightsSymmetricQuantizer:0"
    "ConstInputs": "Variable.model.model_22_dfl_conv.layer.bias.uid65:0"
    "RuntimeMemory": "8.25KB"
    "ScheduleId": "371"

  }
  blobs {
    shape {
      dim: 1
      dim: 16
      dim: 1
      dim: 1
    }
  }
  blobs {
    shape {
      dim: 1
    }
  }
}
layer {
  name: "Reshape: /model/Reshape_29"
  type: "Reshape"
  bottom: "/model/model_22_dfl_conv/layer/Conv:0"
  top: "/model/Reshape_29:0"
    scale_param {
    "InputShapes": "1x4x2100"
    "OutputShape": "4x2100"
    "Quantize[mn,mx]": [0, 16.0]
    "QuantizeBits": 8
    "HasScratch": "true"
    
    "RuntimeMemory": "8.25KB"
    "ScheduleId": "372"

  }

}
layer {
  name: "StrideSlice: /model/Slice_11"
  type: "StrideSlice"
  bottom: "/model/Reshape_29:0"
  top: "/model/Slice_11:0"
    scale_param {
    "InputShapes": "4x2100"
    "OutputShape": "2x2100"
    "Quantize[mn,mx]": [0, 16.0]
    "QuantizeBits": 8
    
    "RuntimeMemory": "4.13KB"
    "ScheduleId": "373"

  }

}
layer {
  name: "StrideSlice: /model/Slice_12"
  type: "StrideSlice"
  bottom: "/model/Reshape_29:0"
  top: "/model/Slice_12:0"
    scale_param {
    "InputShapes": "4x2100"
    "OutputShape": "2x2100"
    "Quantize[mn,mx]": [0, 16.0]
    "QuantizeBits": 8
    
    "RuntimeMemory": "4.13KB"
    "ScheduleId": "374"

  }

}
layer {
  name: "Cast: Cast_to_/model/sub/Sub_1"
  type: "Cast"
  bottom: "/model/Slice_11:0"
  top: "Cast_to_/model/sub/Sub_1:0"
    scale_param {
    "InputShapes": "2x2100"
    "OutputShape": "2x2100"
    "Quantize[mn,mx]": [-16.0, 16.0]
    "QuantizeBits": 16
    
    "RuntimeMemory": "8.25KB"
    "ScheduleId": "376"

  }

}
layer {
  name: "Cast: Cast_to_/model/add_6/Add_1"
  type: "Cast"
  bottom: "/model/Slice_12:0"
  top: "Cast_to_/model/add_6/Add_1:0"
    scale_param {
    "InputShapes": "2x2100"
    "OutputShape": "2x2100"
    "Quantize[mn,mx]": [-16.0, 16.0]
    "QuantizeBits": 16
    
    "RuntimeMemory": "8.25KB"
    "ScheduleId": "375"

  }

}
layer {
  name: "Transform: transform-6-Cast_to_/model/sub/Sub_1"
  type: "Transform"
  bottom: "Cast_to_/model/sub/Sub_1:0"
  top: "transform-6-Cast_to_/model/sub/Sub_1:0"
    scale_param {
    "InputShapes": "2x2100"
    "OutputShape": "2x2100"
    "Quantize[mn,mx]": [-16.0, 16.0]
    "QuantizeBits": 16
    
    "RuntimeMemory": "8.25KB"
    "ScheduleId": "377"

  }

}
layer {
  name: "Transform: transform-7-Cast_to_/model/add_6/Add_1"
  type: "Transform"
  bottom: "Cast_to_/model/add_6/Add_1:0"
  top: "transform-7-Cast_to_/model/add_6/Add_1:0"
    scale_param {
    "InputShapes": "2x2100"
    "OutputShape": "2x2100"
    "Quantize[mn,mx]": [-16.0, 16.0]
    "QuantizeBits": 16
    
    "RuntimeMemory": "8.25KB"
    "ScheduleId": "380"

  }

}
layer {
  name: "Sub: /model/sub/Sub"
  type: "Sub"
  bottom: "Cast_to_/model/sub/Sub_0:0"
  bottom: "transform-6-Cast_to_/model/sub/Sub_1:0"
  top: "/model/sub/Sub:0"
    scale_param {
    "InputShapes": "2x2100, 2x2100"
    "OutputShape": "2x2100"
    "Quantize[mn,mx]": [-64.0, 64.0]
    "QuantizeBits": 16
    
    "RuntimeMemory": "8.25KB"
    "ScheduleId": "379"

  }

}
layer {
  name: "Add: /model/add_6/Add"
  type: "Add"
  bottom: "Cast_to_/model/add_6/Add_0:0"
  bottom: "transform-7-Cast_to_/model/add_6/Add_1:0"
  top: "/model/add_6/Add:0"
    scale_param {
    "InputShapes": "2x2100, 2x2100"
    "OutputShape": "2x2100"
    "Quantize[mn,mx]": [-64.0, 64.0]
    "QuantizeBits": 16
    
    "RuntimeMemory": "8.25KB"
    "ScheduleId": "382"

  }

}
layer {
  name: "Concat: /model/Concat_26"
  type: "Concat"
  bottom: "/model/add_6/Add:0"
  bottom: "/model/sub/Sub:0"
  top: "/model/Concat_26:0"
    scale_param {
    "InputShapes": "2x2100, 2x2100"
    "OutputShape": "4x2100"
    "Quantize[mn,mx]": [-64.0, 64.0]
    "QuantizeBits": 16
    
    "RuntimeMemory": "16.50KB"
    "ScheduleId": "383"

  }

}
layer {
  name: "Mul: /model/mul/Mul"
  type: "Mul"
  bottom: "/model/Concat_26:0"
  bottom: "Cast_to_/model/mul/Mul_1:0"
  top: "/model/mul/Mul:0"
    scale_param {
    "InputShapes": "4x2100, 1x2100"
    "OutputShape": "4x2100"
    "Quantize[mn,mx]": [-1024.0, 1024.0]
    "QuantizeBits": 16
    
    "RuntimeMemory": "16.50KB"
    "ScheduleId": "385"

  }

}
layer {
  name: "Transform: transform-5-/model/mul/Mul"
  type: "Transform"
  bottom: "/model/mul/Mul:0"
  top: "transform-5-/model/mul/Mul:0"
    scale_param {
    "InputShapes": "4x2100"
    "OutputShape": "4x2100"
    "Quantize[mn,mx]": [-1024.0, 1024.0]
    "QuantizeBits": 16
    
    "RuntimeMemory": "16.50KB"
    "ScheduleId": "386"

  }

}
layer {
  name: "Transpose: /model/Transpose_13"
  type: "Transpose"
  bottom: "transform-5-/model/mul/Mul:0"
  top: "/model/Transpose_13:0"
    scale_param {
    "InputShapes": "4x2100"
    "OutputShape": "2100x4"
    "Quantize[mn,mx]": [-1024.0, 1024.0]
    "QuantizeBits": 16
    
    "RuntimeMemory": "16.50KB"
    "ScheduleId": "387"

  }

}
layer {
  name: "Reshape: /MultiClassNMSWithIndices_expand_dims_reshaped"
  type: "Reshape"
  bottom: "/model/Transpose_13:0"
  top: "/MultiClassNMSWithIndices_expand_dims_reshaped:0"
    scale_param {
    "InputShapes": "2100x4"
    "OutputShape": "2100x1x4"
    "Quantize[mn,mx]": [-1024.0, 1024.0]
    "QuantizeBits": 16
    "HasScratch": "true"
    
    "RuntimeMemory": "16.50KB"
    "ScheduleId": "388"

  }

}
layer {
  name: "Transform: transform-4-/MultiClassNMSWithIndices_expand_dims_reshaped"
  type: "Transform"
  bottom: "/MultiClassNMSWithIndices_expand_dims_reshaped:0"
  top: "transform-4-/MultiClassNMSWithIndices_expand_dims_reshaped:0"
    scale_param {
    "InputShapes": "2100x1x4"
    "OutputShape": "2100x1x4"
    "Quantize[mn,mx]": [-1024.0, 1024.0]
    "QuantizeBits": 16
    
    "RuntimeMemory": "16.50KB"
    "ScheduleId": "389"

  }

}
layer {
  name: "MultiClassNms: /MultiClassNMSWithIndices"
  type: "MultiClassNms"
  bottom: "/model/Transpose_11:0"
  bottom: "transform-4-/MultiClassNMSWithIndices_expand_dims_reshaped:0"
  top: "/MultiClassNMSWithIndices:0"
  top: "/MultiClassNMSWithIndices:1:1"
  top: "/MultiClassNMSWithIndices:2:2"
  top: "/MultiClassNMSWithIndices:4:4"
    scale_param {
    "InputShapes": "2100x1x4, 2100x1"
    "OutputShape": "300x4"
    "Quantize[mn,mx]": [-1024.0, 1024.0]
    "QuantizeBits": 16
    "HasScratch": "true"
    
    "RuntimeMemory": "3.31KB"
    "ScheduleId": "390"

  }

}
layer {
  name: "Transform: transform-0-/MultiClassNMSWithIndices"
  type: "Transform"
  bottom: "/MultiClassNMSWithIndices:4:4"
  top: "transform-0-/MultiClassNMSWithIndices:0"
    scale_param {
    "InputShapes": "1"
    "OutputShape": "1"
    "Quantize[mn,mx]": [-32768.0, 32768.0]
    "QuantizeBits": 16
    
    "RuntimeMemory": "32B"
    "ScheduleId": "392"

  }

}
layer {
  name: "Transform: transform-1-/MultiClassNMSWithIndices"
  type: "Transform"
  bottom: "/MultiClassNMSWithIndices:2:2"
  top: "transform-1-/MultiClassNMSWithIndices:0"
    scale_param {
    "InputShapes": "300"
    "OutputShape": "300"
    "Quantize[mn,mx]": [-32768.0, 32768.0]
    "QuantizeBits": 16
    
    "RuntimeMemory": "608B"
    "ScheduleId": "394"

  }

}
layer {
  name: "Transform: transform-2-/MultiClassNMSWithIndices"
  type: "Transform"
  bottom: "/MultiClassNMSWithIndices:1:1"
  top: "transform-2-/MultiClassNMSWithIndices:0"
    scale_param {
    "InputShapes": "300"
    "OutputShape": "300"
    "Quantize[mn,mx]": [0, 1.0]
    "QuantizeBits": 8
    
    "RuntimeMemory": "320B"
    "ScheduleId": "396"

  }

}
layer {
  name: "Transform: transform-3-/MultiClassNMSWithIndices"
  type: "Transform"
  bottom: "/MultiClassNMSWithIndices:0"
  top: "transform-3-/MultiClassNMSWithIndices:0"
    scale_param {
    "InputShapes": "300x4"
    "OutputShape": "300x4"
    "Quantize[mn,mx]": [-1024.0, 1024.0]
    "QuantizeBits": 16
    
    "RuntimeMemory": "18.75KB"
    "ScheduleId": "398"

  }

}
layer {
  name: "Output: Output.output_3.uid69"
  type: "Output"
  bottom: "transform-0-/MultiClassNMSWithIndices:0"
  
    scale_param {
    "InputShapes": "1"
    
    
    
    "RuntimeMemory": "0B"
    "ScheduleId": "393"

  }

}
layer {
  name: "Output: Output.output_2.uid68"
  type: "Output"
  bottom: "transform-1-/MultiClassNMSWithIndices:0"
  
    scale_param {
    "InputShapes": "300"
    
    
    
    "RuntimeMemory": "0B"
    "ScheduleId": "395"

  }

}
layer {
  name: "Output: Output.output_1.uid67"
  type: "Output"
  bottom: "transform-2-/MultiClassNMSWithIndices:0"
  
    scale_param {
    "InputShapes": "300"
    
    
    
    "RuntimeMemory": "0B"
    "ScheduleId": "397"

  }

}
layer {
  name: "Output: Output.output_0.uid66"
  type: "Output"
  bottom: "transform-3-/MultiClassNMSWithIndices:0"
  
    scale_param {
    "InputShapes": "300x4"
    
    
    
    "RuntimeMemory": "0B"
    "ScheduleId": "399"

  }

}
layer{
  name: "best_imx"
  type: "MemoryReport"
  scale_param {
   
    RuntimeMemoryPhysicalSize: "1.19MB"
    ModelMemoryPhysicalSize: "2.52MB"
    ReservedMemory: "1.00KB"
    MemoryUsage: "3.71MB"
    TotalMemoryAvailableOnChip: "8.00MB"
    MemoryUtilization: "47%"
    FitInChip: "true"
    InputPersistent: "false"
    Hash: "best_imx"
    InputPersistenceCost: "0B"
      
   LargestLayer: "/model/Pad_to1d_1,/model/model_1_conv/layer/Conv_concat"
  }
}
